fnn_FeatureRegression/fnn_aug18all.pt (torch, 565927 bytes, 28 tensors)

layers.0.weight f4 [64, 8]
000000 a5 b4 ab 3e b5 93 9b be c8 c3 a1 bc 14 07 9a 3e
       0.33536258 -0.3038613 -0.019746676 0.30083525
000010 6e 06 4a be d0 6f 06 3e a5 a9 80 3e 48 50 b2 be
       -0.19729015 0.1312859 0.25129429 -0.34826875
000020 54 38 ea b5 14 fe d2 b5 73 f0 b6 b9 55 be 8f bb
       -1.7450752e-06 -1.5720166e-06 -0.00034892894 -0.004386703
000030 34 1c 0f 3d 40 e1 03 bd d7 69 a0 bb 2a 46 a9 37
       0.034939006 -0.032197237 -0.0048954296 2.0179043e-05
000040 18 b5 69 be 94 ed a1 3e f9 a1 2e be 4e 26 bf 3e
       -0.22822988 0.3162657 -0.17053975 0.37333912
000050 bd 5c 83 3d 2c 80 ad 3e 56 c4 56 3e 29 d5 d4 3b
       0.06414173 0.3388685 0.20973334 0.0064951372
000060 fa b6 16 3e b4 39 b5 3e 41 aa 3c 3e 63 d4 33 be
       0.14718238 0.35395586 0.18424322 -0.17561488
000070 86 43 55 be a3 df 7a bd 11 a9 88 be bf 65 62 be
       -0.2082654 -0.061248433 -0.26691487 -0.22109126
000080 98 71 34 3d 40 76 cc 3d 39 3e 87 3e ba ea 6c bd
       0.044053644 0.09983492 0.2641466 -0.05784104
000090 81 81 aa bc 3f 10 2a 3d 12 5b b3 be 6c 09 3e 3b
       -0.020813705 0.0415194 -0.3503042 0.0028997315
0000a0 9e 56 d3 be 62 72 21 bd cd f7 0c bc 13 bf a3 3c
       -0.4127702 -0.039415725 -0.008604002 0.019988572
0000b0 22 7e 11 3d 28 fc 03 3c 31 a8 93 3d 14 31 16 3e
       0.03552068 0.008055724 0.07209814 0.1466716
0000c0 72 3d b0 3c ac 1d 3b 3e c5 cc 11 3e e7 82 0e be
       0.021513674 0.18273038 0.1423827 -0.13917123
0000d0 f5 d1 be 3d b8 de 72 3d f3 e4 0b 3e 3e 60 cf 3d
       0.0931739 0.059294432 0.13661556 0.101257786
0000e0 7e 9a 15 39 30 ee 8b bb 55 e6 85 38 d0 d4 d6 b7
       0.000142673 -0.0042703375 6.384837e-05 -2.5609887e-05
0000f0 cf 44 d3 3b 9e 2a 6f ba 54 15 ae b7 bd 01 25 bd
       0.0064474116 -0.0009123477 -2.0752348e-05 -0.04028486
000100 4d 03 01 bc 63 48 04 3e 15 b4 d5 3d 10 fe 9b be
       -0.007874322 0.12918238 0.104347385 -0.30467272
000110 d9 06 8b 3d 34 0d f0 3d 8c 5f 69 3c 9d d3 42 bd
       0.067884155 0.11721268 0.014243972 -0.04756509
000120 3f 8a 0c 3d 7d 85 38 3d 13 db b9 be 24 e3 0f 3e
       0.03431153 0.04504918 -0.36299953 0.14051491
000130 6e 31 16 3e ab f6 b7 3c 6c 8a 1a be 39 9a b3 3d
       0.14667293 0.022456488 -0.15091866 0.0876965
000140 2f 21 02 be e4 cb 60 3e 8e 7f 09 bd 73 ae 22 bd
       -0.12707971 0.21952778 -0.03356891 -0.03971715
000150 3d 39 bb 3d 76 64 15 be 19 4a 45 bc 91 6f f2 bd
       0.09141777 -0.14589104 -0.012041592 -0.11837686
000160 41 b5 65 bc 95 96 31 bd 71 c2 09 be a8 77 9e 3c
       -0.014020265 -0.043356497 -0.1345308 0.019344166
000170 22 f7 b3 3c c3 82 50 bb 24 be 15 3d 07 a7 16 3e
       0.021968428 -0.0031816221 0.036558285 0.14712153
000180 4e 8a 81 3e 69 2a 8b be a8 af 17 3c be 1b 80 3e
       0.2530083 -0.27180794 0.009258188 0.25021166
000190 58 5c 76 be 4b 97 45 3d be 4b 94 be 9f 1b 9b ba
       -0.24058664 0.048239987 -0.28964037 -0.0011833793
0001a0 84 fc 44 be 9d 1b db 3d ed a6 ba 3d 6d 47 89 bd
       -0.19236952 0.10698626 0.0911387 -0.067030765
0001b0 87 b2 92 be 0f f1 c4 bd fa 01 62 be d2 03 52 be
       -0.2865183 -0.09616291 -0.22071066 -0.2050927
0001c0 88 ca a6 bb 6b ad c9 bc 93 bf d1 bc af a2 93 3c
       -0.0050900616 -0.024618825 -0.025604045 0.01802191
0001d0 32 47 64 36 15 c9 8a b9 6f b4 33 b5 d2 b5 3b bc
       3.4016089e-06 -0.0002647123 -6.694526e-07 -0.011456924
0001e0 ab 0b 99 be ac 90 d4 bd 3e a8 47 be f8 bb 8a be
       -0.29891714 -0.103791565 -0.19497773 -0.27096534
0001f0 a1 c4 31 bd 48 ae 22 3e f8 ed 95 be eb 7a 0e be
       -0.04340041 0.15886796 -0.29283118 -0.13914077
000200 46 f9 ce bd 59 96 1e bd fa f5 bb 3d 19 33 da bd
       -0.10106139 -0.0387176 0.09177776 -0.10654277
000210 0f f0 ce 3c c4 03 4f 3e 7e c5 89 be f2 f8 31 be
       0.025260953 0.2021628 -0.26908487 -0.17380121
000220 da e3 d6 bd a8 97 c9 3d 7d 29 90 be f2 e9 d5 3d
       -0.10492678 0.09843379 -0.28156653 0.10445012
000230 f7 dc 5f bc 11 c8 7b 3e ff 2d 4b 3e ea 0d d2 be
       -0.013663522 0.24588038 0.19841765 -0.4102624
000240 d5 dd 2a 3d 3b 39 54 bc 0a 77 85 bb 5d ec 40 38
       0.04171546 -0.012953098 -0.0040730285 4.5996498e-05
000250 45 27 5a bb 97 3c 1c b9 2f 0c 5b bb e5 f6 b9 b5
       -0.0033287567 -0.00014899891 -0.003342401 -1.385543e-06
000260 5f da 7c be 3a 6c 4e 3e 5a 06 99 3e 48 e7 56 be
       -0.24692677 0.20158473 0.29887658 -0.20986664
000270 51 ba b4 3e 80 df a5 3d b8 0e 9a 3d f5 15 b0 3e
       0.35298398 0.0809927 0.07522339 0.34391752
000280 f2 67 6d bd f1 f3 52 be 07 73 90 be 4a 25 a5 3e
       -0.057960458 -0.20600869 -0.2821276 0.32255012
000290 bd 4e 85 be d4 37 9b 3e 68 7c f5 bd 2d 85 83 be
       -0.26036635 0.3031603 -0.11986619 -0.25687543
0002a0 11 9a ab 3e fa 99 73 be c8 61 8b be 5c 0d a0 3e
       0.3351598 -0.23789206 -0.2722304 0.31260192
0002b0 f6 8d 81 3e 5d 0f a4 3e 2c d3 4d be b3 b7 52 be
       0.2530362 0.3204297 -0.20100087 -0.20577888
0002c0 61 49 da bd e9 20 21 3e 96 f7 75 be 46 c7 59 bd
       -0.10658527 0.1573521 -0.24020228 -0.053168558
0002d0 9f a5 ea 3d ce ec 5a 3e 15 8c 9d be 49 56 92 3e
       0.11457371 0.21379396 -0.30770937 0.28581455
0002e0 de d5 08 3e ec 2b b3 bd bf 6d 74 3e a9 5f e4 bc
       0.13362834 -0.08748612 0.2386999 -0.027877646
0002f0 f4 56 10 be bd 15 86 3e aa ac 40 3e 10 a9 c3 3e
       -0.1409567 0.2618846 0.18815866 0.38214922
000300 0c 5f ca 3d 0f da 7c 3e c7 e0 7b be bb d8 a3 be
       0.0988141 0.24692558 -0.24597465 -0.3200129
000310 f3 f5 0f 3e 9b 82 3f 3e 23 66 ec bc 26 11 8d 3d
       0.14058666 0.18702166 -0.028857296 0.068880364
000320 0a bc ca bd fc 6f f1 3d 7e ee 0b be 3f 5a 8d be
       -0.09899147 0.117889374 -0.13665196 -0.27607915
000330 39 b1 55 be 44 10 ea 3a 80 e2 5d bd 54 a9 8a bd
       -0.20868386 0.0017857631 -0.054171085 -0.06770578
000340 a9 4f d2 bc a8 d6 f2 bb f4 8f 87 35 09 70 13 b5
       -0.02567275 -0.007410843 1.010018e-06 -5.49248e-07
000350 12 49 fb 36 41 7e 71 bc 88 17 1c 38 b9 e4 2a 3b
       7.4888894e-06 -0.014739574 3.7215214e-05 0.002607627
000360 fb fc d8 3d 71 36 2b bd a7 88 08 3e 9b d5 82 3d
       0.10595127 -0.041799966 0.13333379 0.06388398
000370 34 ac 38 3e d0 ff a8 3e fb 20 3b 3e 6d 90 73 3e
       0.1803444 0.3300767 0.182743 0.23785563
000380 54 31 8f 3e 62 b9 e7 bd ea df 32 be 77 db 10 3e
       0.27967322 -0.11314656 -0.17468229 0.14146219
000390 bd 58 d7 bd 0a d8 5d 3e 79 38 a2 3e a0 4d 17 be
       -0.10514972 0.21664444 0.3168371 -0.14775705
0003a0 bb bf b8 bd 6b a0 42 3c dc ac 33 3e ab 02 8a be
       -0.09020945 0.011879067 0.1754641 -0.2695516
0003b0 c5 06 58 be 90 74 3d 3e dd 8e 8d 3e 77 16 85 3d
       -0.21096332 0.18501496 0.2764806 0.064984255
0003c0 59 1f 71 3e 27 93 5c be 38 f1 9a be 56 f6 92 3e
       0.23547114 -0.21540509 -0.3026216 0.28703564
0003d0 91 80 76 3e b0 92 54 bc f1 d6 46 be c1 13 a1 be
       0.24072482 -0.012974426 -0.19417931 -0.31460384
0003e0 85 71 4e be 4c 2f a8 3e 99 a2 39 be 1b 9c 7c 3c
       -0.20160492 0.32848585 -0.18128432 0.015418078
0003f0 7f c9 18 be 9d 7f ea 3d d6 39 9f 3d 6d 3c a1 3e
       -0.14920615 0.114501216 0.07774703 0.31491414

layers.0.bias f4 [64]
000000 55 cf 04 be 4a 9c e6 37 bc 78 57 3d a9 71 d2 be
       -0.12969716 2.7490914e-05 0.052605376 -0.4110234
000010 d4 fa be 3e 56 ab 09 be 83 c6 27 be 79 5e 24 b9
       0.37300742 -0.13444266 -0.1638432 -0.00015675453
000020 6b 5a 3f bd 04 e6 0d be 87 a5 a4 be 4c 9f dd 3d
       -0.04671709 -0.13857275 -0.32157537 0.10821399
000030 c5 1e 74 bd c1 25 bc be 9c d8 78 bc 45 4a dd be
       -0.059599657 -0.36747554 -0.015188362 -0.43220726
000040 e9 4e 12 bd bb a9 b2 be d8 43 5f b9 ba 87 a4 bd
       -0.035719786 -0.3489512 -0.00021292211 -0.080337
000050 26 25 62 be a8 02 03 be c7 c5 e4 be 1a c9 87 3e
       -0.22084484 -0.12793982 -0.44682142 0.26520616
000060 11 9b 8c 3e c5 d2 26 be 4f 9b 0f 3d b0 1c e0 bd
       0.27462056 -0.1629134 0.035060223 -0.10942972
000070 b7 27 74 3e 96 da 58 bc e0 b4 94 be 5f 0d 4d 3e
       0.23843275 -0.013235709 -0.29044247 0.20024632
000080 cb 4a 96 ba 4b d7 87 be b9 ce 8e bd 32 f8 fb 3d
       -0.0011466382 -0.26531443 -0.06973023 0.12303199
000090 89 ca c2 3d 84 61 3d bd 4f e7 17 be 2e 9a 39 bb
       0.09511287 -0.046235576 -0.14834331 -0.0028320658
0000a0 5a 28 be bc a7 1f 40 be f9 12 46 3d 1c fb ba 3e
       -0.0232126 -0.18762074 0.048357937 0.36519706
0000b0 70 ab 51 3e 0d 4e bc b9 17 26 94 3e 9d ff 10 be
       0.20475554 -0.00035916307 0.2893531 -0.14160009
0000c0 07 ee e9 3e bb ad c9 3e 8b 6c c0 3c 2d f5 7d bb
       0.45689413 0.39390358 0.023489257 -0.0038750872
0000d0 ac 4b 0c 3c 36 ca 7c be 05 bc c6 bd 5b c7 68 3d
       0.008562963 -0.24686512 -0.09703831 0.056830745
0000e0 58 02 e3 3e 42 b7 15 be dd e2 a4 3d ae 23 0d be
       0.44337726 -0.14620689 0.08051083 -0.13783142
0000f0 e2 34 f0 3d d6 a3 06 bd ba 4d b0 be 7d 7c 75 bd
       0.117288366 -0.03287109 -0.344343 -0.059933174

layers.1.weight f4 [72, 64]
000000 e2 b9 42 bb f8 e9 58 b5 04 36 b1 bd 81 14 96 3c
       -0.0029712846 -8.080674e-07 -0.08652881 0.018320324
000010 07 e3 e5 3d ea 45 6b bd 3b d4 e2 bd 3c 8b bb b6
       0.11224943 -0.057439722 -0.11075636 -5.5892433e-06
000020 72 dd 3b bc cd 43 c8 3d 21 cb b5 bd 70 93 63 bc
       -0.011466371 0.09778557 -0.088766344 -0.013890132
000030 26 e6 aa 3d 38 83 0e be 30 64 60 39 9f bb a1 bc
       0.083446786 -0.13917243 0.00021399627 -0.019742785
000040 4e 20 09 3d e4 44 25 3c f9 2c 6c 38 c1 37 9c bc
       0.033478074 0.010087226 5.630867e-05 -0.019069554
000050 97 18 ba 3d c1 26 9c bd f6 d1 0c be fd 33 c1 3d
       0.090867214 -0.07624579 -0.13751969 0.09433744
000060 fd 8f 8f 3d 34 6e 61 3c 25 37 ce 35 86 11 1d bd
       0.070098855 0.013759185 1.5364245e-06 -0.03834679
000070 66 80 f4 bd 98 52 87 3d 56 6c ae 39 d1 20 c9 3c
       -0.119385526 0.066075504 0.00033268583 0.02455178
000080 fb 6e 86 b8 84 c9 6f 3c dc 6b 20 bd 76 c3 80 3b
       -6.41029e-05 0.014635447 -0.039165363 0.0039295508
000090 06 fe 9c b8 b9 ea a2 3d 5f a5 b9 bd c1 61 37 bb
       -7.485975e-05 0.07954926 -0.09064745 -0.002798185
0000a0 52 03 1a b7 5d 42 a1 3d 01 e7 c4 b9 3a cf 17 bd
       -9.179888e-06 0.07873986 -0.00037556145 -0.03706286
0000b0 a2 85 9c bb 9e fd c2 b7 91 d1 1e bd dd 9c 97 bd
       -0.0047766725 -2.3244702e-05 -0.038774077 -0.07402966
0000c0 78 61 82 bd 52 c9 2e bd c2 36 25 38 87 39 85 34
       -0.06366247 -0.042672463 3.9390063e-05 2.4815037e-07
0000d0 b4 28 43 3d 2b 41 b3 3d 65 8c b0 bd dd 28 9d bd
       0.04764624 0.08752664 -0.08620528 -0.0767381
0000e0 6d ad d3 3c 95 2e 0b be 32 b9 84 3d 1c bf 4d 3c
       0.025839532 -0.13591988 0.06480636 0.012557771
0000f0 04 00 a1 bd d0 8e 68 bd e7 13 6a 3d a1 35 94 3d
       -0.07861331 -0.05677682 0.057147887 0.072367914
000100 6a fa 1c 38 69 38 6c b9 6d c4 dd b6 dc 9d 83 b8
       3.7426515e-05 -0.00022527728 -6.60918e-06 -6.2759704e-05
000110 50 62 69 37 72 f8 39 b7 c3 00 52 38 f8 63 3b b8
       1.3910772e-05 -1.1084705e-05 5.006861e-05 -4.4677377e-05
000120 9f e5 6d b9 45 a3 57 39 25 75 ed 36 94 af 70 b9
       -0.00022687622 0.0002056482 7.076788e-06 -0.00022953592
000130 f5 47 65 36 01 2c 37 b8 7f b9 bb 36 ec 2c 87 38
       3.4165544e-06 -4.367158e-05 5.594629e-06 6.445669e-05
000140 04 4b d3 b6 e7 19 28 b9 ca d6 83 b8 04 3d 9f b7
       -6.297023e-06 -0.00016031378 -6.286574e-05 -1.898269e-05
000150 d3 f2 5e 37 74 df 99 b7 9a b5 9f b7 53 09 1c b8
       1.3288768e-05 -1.8343075e-05 -1.9038842e-05 -3.7201982e-05
000160 01 3e 4d b8 83 6a fa 36 f8 9f 09 37 4f 76 f1 b4
       -4.8933554e-05 7.46298e-06 8.203082e-06 -4.497583e-07
000170 52 52 2f 38 a4 cc e7 b8 55 57 bb b3 4a 19 dd 36
       4.1799918e-05 -0.00011053056 -8.723752e-08 6.5892573e-06
000180 0c 86 bf b8 ff a7 91 33 70 b0 58 39 68 f5 07 38
       -9.132558e-05 6.782647e-08 0.00020665093 3.241506e-05
000190 14 c9 88 39 94 91 b6 b6 74 d5 60 b9 c6 b6 7e b7
       0.00026089756 -5.44097e-06 -0.00021441822 -1.5182135e-05
0001a0 28 b3 5e b6 fe 4b c4 b6 82 35 0f 34 ef 3c 87 b9
       -3.318486e-06 -5.850102e-06 1.3337379e-07 -0.00025794606
0001b0 57 18 fd 32 37 28 77 b8 f6 60 2a 38 99 09 1d b8
       2.9464145e-08 -5.8926842e-05 4.062146e-05 -3.7440655e-05
0001c0 94 5f b2 32 13 16 38 b6 67 3e b2 b8 fd 00 83 38
       2.0765391e-08 -2.7430985e-06 -8.499325e-05 6.246751e-05
0001d0 1d f0 bf b8 af 3a 6d 39 ba b9 0a 37 a5 d5 5c b6
       -9.152314e-05 0.00022623943 8.268684e-06 -3.2906912e-06
0001e0 51 de a4 b6 c4 b6 85 36 fa 6a 34 b8 a6 fc 0a b8
       -4.913462e-06 3.9849856e-06 -4.3014974e-05 -3.313706e-05
0001f0 89 a6 bc b7 4e 8f f9 b8 a5 41 8c 36 8c 74 00 39
       -2.2488895e-05 -0.00011899938 4.179967e-06 0.00012250448
000200 66 e4 17 b9 15 c1 28 b9 32 d4 35 3d fc 91 a5 3d
       -0.00014485567 -0.00016093657 0.04439182 0.08084485
000210 f1 b3 94 bd 8f 31 e8 3d f8 66 91 3b 53 64 bc 37
       -0.072608836 0.113375776 0.0044373237 2.2458064e-05
000220 33 50 17 bc 5e b5 c6 bb 36 ee 79 3d 8d 58 5a bb
       -0.00923543 -0.006064101 0.06101819 -0.003331694
000230 23 51 63 bd db 15 19 bd ff 4c 33 39 0d e8 9b 3d
       -0.0554973 -0.03737436 0.00017099454 0.076126195
000240 6d df a8 bd 26 bb 6a bd 65 75 94 38 d3 f6 39 3d
       -0.0824574 -0.057307385 7.0790564e-05 0.045401406
000250 a7 b3 49 bc 15 77 39 3d 7c 25 88 3d 59 7a 89 bd
       -0.012310899 0.04527958 0.066477746 -0.06712789
000260 55 1b b6 bd 61 59 ea bd ce ee 87 39 5b 3d 52 3d
       -0.08891932 -0.11442829 0.0002592713 0.051328044
000270 16 a4 69 bd d1 2c 09 bd fb 42 99 bb c4 9c 82 3d
       -0.05704125 -0.033490006 -0.004677174 0.06377557
000280 1e b6 13 b8 90 e3 db 3c f9 74 12 3e 6a 0a c3 3a
       -3.521714e-05 0.026841909 0.14302434 0.0014880423
000290 8f 94 69 3c 75 06 18 3d 20 19 73 3c a1 ee c2 b7
       0.014256611 0.037115533 0.014837533 -2.3237722e-05
0002a0 96 62 64 39 f8 38 95 3d 29 61 a9 3c 5f 45 b9 bd
       0.000217805 0.072862566 0.020676212 -0.090464346
0002b0 eb 7c d8 3d 96 26 75 37 d9 69 1c 3d 90 5c 5c bc
       0.10570701 1.4612122e-05 0.03818688 -0.013449803
0002c0 4e 56 55 3d 05 de db bd f7 4a 95 b8 44 fc a6 b7
       0.05208426 -0.10735706 -7.118837e-05 -1.9906212e-05
0002d0 07 4f e7 bd 8e 48 93 bd 41 0c 42 3c 08 93 6c bd
       -0.1129437 -0.07191573 0.011843742 -0.057757407
0002e0 6e e3 f4 bd 19 50 fc 39 93 9a 73 bd 1e 8a e4 bc
       -0.11957441 0.00048124863 -0.059473585 -0.02789789
0002f0 74 20 75 3c 8d 5c 5e 3d af 3e a7 bd 0c ba 9a 3d
       0.014961351 0.054287482 -0.08166253 0.07555017
000300 45 cd b0 bc 80 cd b4 b4 13 af 46 3d 68 27 c4 bd
       -0.021582255 -3.3677134e-07 0.048506808 -0.09577829
000310 8e ae 83 bd 7a 5c 33 bc de ab 51 3d 90 4c 50 34
       -0.06429778 -0.010947341 0.051189296 1.9399363e-07
000320 61 c1 06 bd ba c7 20 3d 57 71 dd 3b 5e f2 4d 3c
       -0.032899264 0.039252974 0.006757896 0.012569992
000330 7a 2d 9d 3c 0d 7e 06 3d 6b 1b c5 37 a8 5c 6a bd
       0.019186724 0.032835055 2.3496998e-05 -0.05721727
000340 3e c4 8d bd 09 bc 33 bd 31 09 b5 36 82 cb 5a bd
       -0.06922196 -0.043880496 5.3952904e-06 -0.053416736
000350 2b b3 80 bd 17 b5 97 bd 1f 99 01 be 9d 18 14 bd
       -0.062841736 -0.07407587 -0.12656067 -0.036156286
000360 7c 35 c7 3d 4e 45 57 bd e2 7b 38 b3 c4 41 0a 3d
       0.09726998 -0.05255633 -4.295351e-08 0.033754125
000370 88 94 f3 3d ed 46 22 bd 1a 53 c8 bc 7e 75 59 bc
       0.118935645 -0.03961842 -0.024453688 -0.013272641
000380 11 12 f7 b4 9b b7 49 3b 2c ad 57 bc 6b 5e a1 bb
       -4.602048e-07 0.0030779603 -0.013163846 -0.0049245856
000390 28 ed 98 bc 94 9d a2 bd d6 16 b6 3d 55 93 08 3c
       -0.018667772 -0.07940212 0.08891074 0.008335908
0003a0 c8 a6 42 b9 85 ac 50 3d 89 a0 db bd 71 9d 79 bd
       -0.00018563413 0.050945777 -0.10723979 -0.060941163
0003b0 fe ef 97 3d e9 8f 72 38 fb a1 86 3d 88 4c ed 3d
       0.07418822 5.7831323e-05 0.06573864 0.11586863
0003c0 1d 66 84 bc b2 b2 f6 bd 2e 34 70 39 92 f5 a4 b3
       -0.016161973 -0.12045802 0.00022907622 -7.681514e-08
0003d0 9f 9f ea bc f7 1f b2 3d 54 4c 87 3c d2 4c 26 3d
       -0.028640566 0.08697503 0.016515888 0.040600605
0003e0 39 49 a4 3d 2e 36 27 3c cd 5d 94 bd d9 07 d8 3d
       0.080217786 0.010205789 -0.072444536 0.10548372
0003f0 d5 a1 f7 bd cc 1f cb 3c c3 ee 86 bd 49 ce 6b 3d
       -0.12091414 0.024795435 -0.06588509 0.057569776

layers.1.bias f4 [72]
000000 29 f6 92 3d 61 d9 1b 39 5b c1 fe 3c 28 d1 81 3e
       0.071758576 0.00014862932 0.031098058 0.25354886
000010 c2 6d e5 b8 32 38 33 3e 4b b3 d6 37 42 97 d8 37
       -0.00010940015 0.17501906 2.5594278e-05 2.5819641e-05
000020 b0 f6 1e 3e b8 a1 86 3d 76 06 1a 3e 2f 38 5e be
       0.15523791 0.06573814 0.15041527 -0.2170112
000030 1a 91 df 3d 09 fb 35 bb ea 0a 35 3e 3e 96 7b 3e
       0.10916348 -0.0027768037 0.17679945 0.24569032
000040 bc 54 f0 3d 3f 6a ab 3b 53 0a e1 3d df 42 7d bc
       0.11734912 0.0052311714 0.10988297 -0.015457838
000050 72 1f 05 3e 43 5f 74 be be f4 5e 3e a9 60 28 38
       0.13000277 -0.23864464 0.21773049 4.0144343e-05
000060 40 73 7a 3e af 31 6f 3e f2 dc d1 36 4b 35 10 39
       0.24458027 0.23358797 6.254407e-06 0.00013752763
000070 55 f3 33 be 9e c6 42 3e b9 57 aa 3d 3d b9 b3 bd
       -0.17573293 0.19021079 0.08317513 -0.08775566
000080 d9 5c cb bd e7 0e d5 3c 0f 86 5c 3d 74 5d 7a b5
       -0.09929819 0.026008083 0.053838786 -9.326825e-07
000090 e3 5b 1d bd 34 97 87 37 1a 1a 88 3d 76 a6 17 33
       -0.038417708 1.6163664e-05 0.066456035 3.5308823e-08
0000a0 93 b2 21 bb 94 f2 3c 36 4f d5 87 bd 63 84 af b8
       -0.002467309 2.8155382e-06 -0.06632482 -8.369309e-05
0000b0 a4 07 33 3e 4b 26 1e 3e 92 c7 2d 3e ea 5d 48 3e
       0.17483383 0.15444295 0.16970661 0.19567075
0000c0 b3 71 35 bb 46 1e 21 3e 78 6e 84 bc e6 35 1e 3e
       -0.0027686178 0.15734205 -0.016165957 0.15450248
0000d0 38 45 06 b8 8b 06 4b 3a df 2a 63 be 41 47 18 39
       -3.2012555e-05 0.00077448104 -0.22184323 0.00014522394
0000e0 ae 10 90 3e 59 01 87 b6 c0 ed 6c 35 57 b8 88 3e
       0.28137726 -4.0234704e-06 8.826282e-07 0.2670314
0000f0 78 2f f2 b6 f7 3f 06 bc e9 b9 d8 3d 2e 30 a4 bd
       -7.217688e-06 -0.008193961 0.105823345 -0.08017002
000100 30 34 fa bb e1 df 46 bc a6 a2 40 b6 94 f0 15 3e
       -0.0076356158 -0.012138338 -2.8704903e-06 0.14642555
000110 df 20 c2 3d 1c 72 c1 bb ef ac 34 3e 0b 57 04 3e
       0.09478926 -0.0059034955 0.17644094 0.1292383

layers.2.weight f4 [82, 72]
000000 ec 8d 9a bc 0a b5 9c 36 70 a7 92 bc 02 f2 0b 3d
       -0.018866502 4.670238e-06 -0.017902106 0.034166344
000010 e9 1b 09 38 37 ef c0 bd 20 c8 0b b6 f4 0a fb b8
       3.268934e-05 -0.094206266 -2.0829102e-06 -0.00011970653
000020 1e f5 4a bb f1 fd d0 3d ba aa ba 3d a1 12 d2 bb
       -0.0030968855 0.102046855 0.09114595 -0.006410912
000030 58 9a 4a 3b 7a 47 3a 3b 71 a8 68 bd 9d 86 75 bd
       0.003091475 0.002842395 -0.056801263 -0.05994283
000040 8c 13 83 bd 5d 40 02 ba b9 0a 51 bd 9b e2 ae bd
       -0.06400213 -0.00049686973 -0.051035617 -0.08539315
000050 a6 34 42 3c bb be 0d 3d 3f ca eb 3d 6d 25 15 b5
       0.011853373 0.034605723 0.11513185 -5.5561287e-07
000060 eb c1 83 3d e7 f0 85 3c a0 09 bb b7 6d f0 21 b6
       0.06433471 0.016350223 -2.229662e-05 -2.4130816e-06
000070 84 d6 93 3d 18 39 cb bd 3e 79 ba bd 03 03 6b 3d
       0.0721865 -0.09922999 -0.09105156 0.05737592
000080 ff d8 57 3d cd b7 90 3c 4d 66 39 3d c6 b1 97 b8
       0.052697178 0.017665768 0.045263577 -7.233354e-05
000090 c3 b1 d8 3d 1c 2d 6c b7 7d 22 8e 3d 0e 66 4e b8
       0.1058078 -1.4077199e-05 0.06940172 -4.9209273e-05
0000a0 44 9f bf 3b 2d 43 ee b7 5d 52 9a 3d 19 54 90 38
       0.0058478434 -2.8403092e-05 0.07535241 6.8821195e-05
0000b0 5c 2c bd bd 67 f3 80 bc f5 05 86 3d 73 9f 91 bc
       -0.092369765 -0.015741063 0.06544105 -0.017776227
0000c0 9a 58 2a bb 77 dc 00 bb f9 50 9c bd 62 d3 6e 3d
       -0.0025992752 -0.0019662657 -0.07632632 0.05830706
0000d0 4e d6 66 39 82 03 63 bd 62 b7 92 3d 0b fb 3a 39
       0.00022014344 -0.055423267 0.07163884 0.00017831863
0000e0 29 34 03 3d fa c5 9c 37 c1 24 5a b5 2f 95 c4 3d
       0.032032166 1.868884e-05 -8.126481e-07 0.09598767
0000f0 18 9b 4b b6 f2 12 8c 36 f8 77 53 3d 56 9c 90 3c
       -3.0339634e-06 4.1745307e-06 0.051628083 0.017652672
000100 69 62 82 3d 88 1c 37 bb c4 f4 31 b9 20 02 c8 3d
       0.063664265 -0.002794059 -0.00016971218 0.0976603
000110 a1 8e e0 bd ce 23 24 bd 4e db 89 3d 33 d4 fb 3b
       -0.10964704 -0.04007321 0.06731282 0.007685208
000120 5c b5 e7 b5 f5 87 f8 b5 3f cf 9c b7 de 9a 90 b3
       -1.7263624e-06 -1.8517009e-06 -1.8693156e-05 -6.733693e-08
000130 c5 8e 1c b5 40 27 c3 37 82 57 96 b6 af 69 30 b7
       -5.8322286e-07 2.3264089e-05 -4.4805356e-06 -1.0515024e-05
000140 22 81 9a b7 b3 9d ef 38 85 5c 82 b4 fc 94 25 39
       -1.8418363e-05 0.00011425782 -2.4281704e-07 0.00015791127
000150 94 8e 24 b8 03 3a 2c b7 1c 4d 7c b8 e7 23 aa 34
       -3.9233433e-05 -1.0265506e-05 -6.0153296e-05 3.169109e-07
000160 a7 9a 7a b8 37 39 c6 37 7a 13 da b6 f7 51 42 b6
       -5.9748676e-05 2.3630082e-05 -6.4991737e-06 -2.8955963e-06
000170 57 95 57 39 d2 78 ac b7 82 20 91 35 b8 f7 a9 36
       0.00020559631 -2.056026e-05 1.0812803e-06 5.0654307e-06
000180 97 b2 80 b6 1d 86 58 b8 e8 d6 fc b8 63 7f b8 38
       -3.835488e-06 -5.1623316e-05 -0.00012056326 8.797531e-05
000190 7d 86 ee 36 e8 f7 04 38 59 f0 92 b3 fe 40 d6 b7
       7.108609e-06 3.1702133e-05 -6.842374e-08 -2.5541052e-05
0001a0 ca 7b ef 37 ae 08 97 b7 69 8e 40 b7 f5 59 44 38
       2.8548664e-05 -1.8004645e-05 -1.1477249e-05 4.681382e-05
0001b0 74 0d 94 b6 b8 dc 0f 36 10 8b dc 37 49 68 48 38
       -4.41231e-06 2.1437136e-06 2.62908e-05 4.778084e-05
0001c0 86 1c fa b7 0a 0d ea b7 a7 a1 83 b5 52 4b 2b 38
       -2.9815605e-05 -2.7901046e-05 -9.807308e-07 4.0839725e-05
0001d0 a7 b3 3e b9 1c 88 05 b9 55 aa e3 b6 68 41 ed b8
       -0.00018186738 -0.00012734573 -6.7849564e-06 -0.000113132235
0001e0 66 57 97 b5 d7 54 58 37 db 95 93 b7 4d 0f c2 37
       -1.1275813e-06 1.2894357e-05 -1.7593547e-05 2.3133727e-05
0001f0 28 4f 13 b8 2c e2 2e b4 c7 29 bc b8 b2 e0 2b b7
       -3.512125e-05 -1.6287294e-07 -8.97232e-05 -1.024471e-05
000200 6a 78 fe b8 fb 25 fb 36 aa 1f df 38 48 3a 90 37
       -0.00012134093 7.4848044e-06 0.000106393665 1.7193277e-05
000210 b4 2c 56 b5 05 67 47 36 94 f6 47 b7 8f f2 a1 37
       -7.9786264e-07 2.9713276e-06 -1.1918735e-05 1.9305646e-05
000220 cd ff 42 b8 93 7a 20 b7 7f 26 27 b7 54 5a 0c 37
       -4.6491437e-05 -9.565282e-06 -9.962939e-06 8.365681e-06
000230 e0 2c ba 35 e7 9f e4 b8 d9 2a a8 b8 87 99 97 b8
       1.387114e-06 -0.00010901671 -8.018845e-05 -7.228838e-05
000240 54 d2 d0 3c 08 ce dc 38 70 17 eb 3d 0c 70 23 3d
       0.025490917 0.00010528794 0.1147908 0.039901778
000250 ac 27 ac b7 72 63 fa 3d 7f 3c bb b6 ae 2e f2 ba
       -2.0522471e-05 0.12225999 -5.580077e-06 -0.0018477046
000260 40 54 09 3d 0a d9 04 3d 18 fc b0 bd 51 51 0f 3d
       0.033527613 0.032433547 -0.08641833 0.03498966
000270 08 83 9b bd 6d 81 4b 3b 40 0e 86 bd ed 5f 6e 3d
       -0.075933516 0.0031052486 -0.06545687 0.05819695
000280 be 1f ba bc f0 90 2d b8 a8 68 35 3e bb 34 92 bc
       -0.022720214 -4.1381398e-05 0.17715704 -0.01784741
000290 7d 1e 93 3d fe 0d aa bd dc 8c ee bc 63 cb 2b b7
       0.071835496 -0.0830345 -0.029119901 -1.0239749e-05
0002a0 b3 87 3c 3d ce 4f b1 bc e1 01 10 b6 80 a5 44 39
       0.04602785 -0.0216445 -2.1458766e-06 0.0001875367
0002b0 84 19 9f 3d 3f 16 4e 3d 35 15 d1 3d 37 59 7d 3d
       0.077685386 0.050314184 0.10209123 0.06185266
0002c0 26 52 48 3d ac 7c 22 bd 22 dd b1 bd f4 03 16 39
       0.048906468 -0.039669678 -0.08684756 0.00014306587
0002d0 26 9c 17 3d c4 d5 aa b8 b9 1d 03 bd b7 a1 21 39
       0.03701415 -8.146049e-05 -0.032010768 0.000154144
0002e0 c5 cc 95 37 a4 8b 90 36 b1 04 d9 3c 0b 4f 62 ba
       1.7857537e-05 4.3077907e-06 0.026491495 -0.0008632994
0002f0 5c 16 7f 3c 35 b9 1e bd 38 12 b7 3d c2 68 e4 3d
       0.015569296 -0.038750846 0.08939022 0.111527935
000300 ed 5a 14 39 6f 19 cc bb 7c f8 dc 3d f7 d0 5a 3c
       0.00014148252 -0.006228618 0.10789582 0.013355485
000310 7a 95 00 39 36 0e d1 bd 25 32 82 bd 69 37 4b 38
       0.00012262716 -0.10207789 -0.063572206 4.8450576e-05
000320 43 d1 ac 3d d9 b9 ed b8 47 51 01 b8 ee 98 0e bd
       0.08438351 -0.000113356575 -3.0831692e-05 -0.034813814
000330 58 4e e1 b6 2f 04 a8 38 7f 30 97 bd 78 7f 87 ba
       -6.714643e-06 8.0116435e-05 -0.07382297 -0.0010337671
000340 d8 63 c2 3d c2 13 78 3a d7 73 74 b8 c8 31 80 bd
       0.094917 0.00094633934 -5.8282018e-05 -0.06259495
000350 fb 6d 73 3c 42 44 6c 3c c5 79 37 3c 40 83 05 bd
       0.014857764 0.014420571 0.011198466 -0.032595873
000360 cc c7 92 3b 09 1d 8c 35 bb 00 16 3b e5 65 d9 bb
       0.004479384 1.0439263e-06 0.002288862 -0.006634461
000370 40 75 be b4 55 7c 97 b9 4a f7 1c b9 10 b3 9a b8
       -3.5475568e-07 -0.000288936 -0.00014969442 -7.376645e-05
000380 ce 68 72 b8 8c 38 a8 3b f7 9f 69 3b 66 96 a5 39
       -5.7794903e-05 0.005133694 0.0035648325 0.00031583308
000390 6d d2 ae b9 da 3f 5a 39 4f ce d8 bb c2 9c cb 3b
       -0.00033344646 0.00020813887 -0.006616391 0.0062137553
0003a0 89 98 97 3a 81 e5 42 b6 75 5e db b8 05 07 93 38
       0.0011565845 -2.9041842e-06 -0.00010460328 7.010814e-05
0003b0 24 16 7d b9 be 2e b1 38 47 be 7f 3b c7 8c 3b b7
       -0.00024136208 8.448724e-05 0.0039023326 -1.1178846e-05
0003c0 3e 3a d7 3a 04 db 06 38 5c dc 82 b8 6f 04 43 b7
       0.0016420556 3.2152064e-05 -6.239928e-05 -1.1623938e-05
0003d0 cd 06 7c 39 7c 95 72 3b c6 5a 3c b9 b2 c9 87 bb
       0.00024035126 0.003701537 -0.00017962893 -0.004143917
0003e0 ed 18 ea bb f2 db 45 bb 93 81 9b bb 7e c9 53 38
       -0.0071440847 -0.0030190912 -0.004745671 5.0493974e-05
0003f0 8c 08 be 3b ff 37 28 35 67 f2 47 3a f7 3d ef b8
       0.0057993587 6.266636e-07 0.00076273683 -0.0001140795

layers.2.bias f4 [82]
000000 73 eb 86 3e 6e fa f1 38 d5 cb cf 3d be 4f 64 36
       0.26351508 0.00011538422 0.101463 3.4021064e-06
000010 fd 19 ed b4 12 01 14 38 b5 6d c3 3d 00 ba bd 3d
       -4.41636e-07 3.5286947e-05 0.09542409 0.09263992
000020 a9 d9 11 be 2c 38 8e 3d 0f 03 33 3e eb 1e 3f ba
       -0.14243187 0.06944308 0.17481636 -0.0007290679
000030 cf e8 63 3e 58 d2 46 bd c9 65 97 38 9a d4 73 3c
       0.22256778 -0.048540443 7.2192e-05 0.014882231
000040 6f 74 3f b6 04 aa 99 3d f6 8b 31 38 f3 19 c5 bd
       -2.8528991e-06 0.07503131 4.2330437e-05 -0.0962409
000050 44 90 42 3e cb 13 91 3e ee 05 82 3e 33 41 2e 3e
       0.19000345 0.28335413 0.2539515 0.17017059
000060 96 f2 41 3e 5b d4 89 3e f2 13 b9 b8 fd 05 99 3d
       0.18940195 0.26919827 -8.8252025e-05 0.07471845
000070 a7 7a 54 b9 b3 90 41 3e 0a 6e 51 3e a2 8e 28 bb
       -0.00020263587 0.18902855 0.20452133 -0.0025719781
000080 3c 1a 4a 3e 2d 0a 01 be 51 3c 39 3e 54 b9 84 3c
       0.1973657 -0.12601538 0.18089415 0.016201653
000090 65 27 a1 38 ce 26 6f 3d 85 82 f2 3d 96 c9 4d 3e
       7.684416e-05 0.058386616 0.11841301 0.2009643
0000a0 2d fb 2e be 96 17 dc bb 8d ba 52 3d 2f 8d 0b 3a
       -0.17088003 -0.006716679 0.05144744 0.0005323467
0000b0 1c 66 86 3d d6 ef 46 3d a1 6c 70 3e 34 03 ed 39
       0.065624446 0.04856857 0.23478939 0.0004520655
0000c0 19 ff 94 3e ca d4 43 39 03 5f 53 3b 3d c3 cc b8
       0.29100874 0.0001867592 0.0032252676 -9.763844e-05
0000d0 b1 ac 68 be 38 2f 50 3e 3c 50 c6 3d 8b 70 81 be
       -0.22722127 0.20330513 0.09683272 -0.25281176
0000e0 dc 23 4f 38 a7 68 4a 3e f2 74 d9 37 ae b1 00 3e
       4.9386043e-05 0.19766484 2.5922873e-05 0.1256778
0000f0 c1 f4 6f 3e 22 55 b3 39 6c 5b ac 39 82 c3 37 be
       0.2343321 0.0003420497 0.0003287451 -0.17945674
000100 8c 80 27 bb 34 d7 b4 3d 06 7c 6c be 92 a7 3a 3e
       -0.0025558798 0.08830109 -0.23094186 0.18227986
000110 84 49 e5 bd cd de 14 3e 5b e6 26 3e ca db 86 bd
       -0.111956626 0.14538117 0.16298811 -0.0658489
000120 37 b5 89 3e 39 2c 58 39 0e 3c 70 3e a5 86 02 bc
       0.26896068 0.0002061584 0.23460409 -0.007966672
000130 70 3e 34 3e c6 7b f4 3d 51 3d 14 3e 8d c5 69 3e
       0.17601943 0.119376704 0.14476515 0.22829266
000140 6f 39 c6 3c 33 70 4d 3d
       0.024197308 0.05015583

layers.3.weight f4 [92, 82]
000000 89 d2 18 bd 09 91 53 b8 c1 4d 9e 3d d8 0d 48 39
       -0.037310157 -5.0441395e-05 0.07729674 0.00019078644
000010 0f 12 e7 37 c4 be 95 35 79 49 c1 3d 1e 48 a0 bd
       2.7545755e-05 1.1156885e-06 0.09437842 -0.07826255
000020 9b 12 9b 3d b5 00 ff 3c 1d 0f af 3d 7e a6 94 b9
       0.07571908 0.031128267 0.085478045 -0.00028352806
000030 ca 43 cd bd 42 3c b9 bd dd a8 c8 36 38 29 d4 bc
       -0.10022695 -0.090446964 5.9801228e-06 -0.02589856
000040 4c b1 d0 37 5d 3e 6d bd f5 64 10 39 26 96 48 3d
       2.4878093e-05 -0.057920802 0.0001377052 0.048971318
000050 48 38 5e bd 93 59 d4 3d a6 f2 dd 3d 7f eb c5 3d
       -0.054252893 0.103686474 0.10837297 0.09664058
000060 9e 1a 5b bd 5b 16 70 bd 1c fc 82 b6 1a 4b 9b bc
       -0.05349218 -0.05861507 -3.9036513e-06 -0.01895671
000070 fd 82 28 b8 68 6b 42 bd 9f 79 a2 bd ae 18 75 3a
       -4.0176314e-05 -0.04746571 -0.07933354 0.0009349686
000080 72 e4 53 bd 09 cf 03 be 17 d2 19 bd 57 dd 3f 3d
       -0.051731534 -0.12871946 -0.037553873 0.046841945
000090 da 6a 35 37 2f 49 91 3b 07 39 4f bb f3 e0 91 bd
       1.0813319e-05 0.004433773 -0.0031619684 -0.07122984
0000a0 6a 19 2f bd 13 08 8d ba ee 3a 0b 3d 9a fa 0d bb
       -0.042748846 -0.0010759853 0.033991747 -0.0021664263
0000b0 bf 99 cb 3d b6 89 46 bb 6f f5 6d 3d 1d 00 0c bb
       0.09941434 -0.0030294484 0.05809539 -0.0021362372
0000c0 81 d6 bf 3d 86 cc b8 ba ff 07 3c 3a a4 5a 12 b8
       0.09367085 -0.0014099039 0.00071728224 -3.489353e-05
0000d0 c7 80 07 bc 88 6e 66 3d 83 3d 79 3c 04 8e 73 bd
       -0.008270449 0.056257755 0.015212419 -0.05946161
0000e0 f5 36 db 37 3f 41 c5 bd 5b ad d8 38 47 9b d1 3d
       2.6132426e-05 -0.09631585 0.000103319726 0.10234695
0000f0 62 e9 b8 3d 47 50 98 ba 85 7d f4 b8 93 00 ff bd
       0.09028889 -0.0011620604 -0.000116582065 -0.124512814
000100 4d 8b d8 3c 75 62 a3 3d eb d6 24 bd c8 39 7a bd
       0.026433611 0.079777636 -0.040244024 -0.06109026
000110 18 24 47 3d 59 88 3b 3c 2a 2f c6 3d b4 f6 f0 bc
       0.048618406 0.011446082 0.096769646 -0.029414512
000120 07 a4 28 3d dd 96 14 38 01 11 e4 3d 33 28 85 38
       0.041172054 3.5426452e-05 0.11136056 6.349422e-05
000130 1b 16 01 bd 66 b6 b2 3d c2 05 33 3b da 8a 99 3a
       -0.031515222 0.08726196 0.0027316664 0.0011714355
000140 ba 74 de bc a2 33 62 3d cf f2 21 b7 61 0c 62 b6
       -0.027155269 0.055225022 -9.652881e-06 -3.368383e-06
000150 00 0c 4f b8 69 b3 9e b8 50 61 be 38 3c b9 c5 37
       -4.936382e-05 -7.567445e-05 9.078032e-05 2.3570487e-05
000160 96 c4 37 b8 bd 08 20 3b 7f 9a 4c 38 d2 29 5f b4
       -4.3813685e-05 0.002441927 4.8781276e-05 -2.0783708e-07
000170 bf 96 3a 3b 38 f8 5f b8 67 1d e1 b5 5c e3 4f bb
       0.00284712 -5.3398515e-05 -1.6772364e-06 -0.003172121
000180 d3 30 85 35 20 da 34 b7 09 e4 20 33 e7 4d 9a bb
       9.923482e-07 -1.0779622e-05 3.74603e-08 -0.0047089937
000190 dc da 72 b7 b5 e7 97 3b 31 03 22 39 86 05 a0 bb
       -1.4475281e-05 0.004635776 0.00015450713 -0.004883471
0001a0 50 bc b4 b7 3d e6 bc b6 0d c3 5a 39 7d 1e 3b 39
       -2.1545362e-05 -5.62964e-06 0.00020862762 0.00017845067
0001b0 11 3d a7 b7 b0 55 ec ba 1f cc 39 b6 7a e9 80 bb
       -1.9936388e-05 -0.0018030908 -2.7685962e-06 -0.0039340826
0001c0 cb 90 bf ba 04 67 dc b6 9c 2c 2d 3b c7 01 95 33
       -0.0014615295 -6.5685035e-06 0.0026424294 6.9386765e-08
0001d0 fe d1 7f b8 f0 59 81 b8 45 77 9a b6 bc de 1b 3b
       -6.0992308e-05 -6.1679515e-05 -4.6034424e-06 0.0023783883
0001e0 49 b4 0f bb 3e 0c 5b b8 d8 ba 21 bb 31 5d 00 bb
       -0.0021927527 -5.222507e-05 -0.0024678018 -0.0019586796
0001f0 da a6 72 b7 0a 4c d4 b6 32 ad a0 b8 d4 e6 05 bb
       -1.4463172e-05 -6.3269445e-06 -7.661655e-05 -0.0020431774
000200 b2 ac bc 39 3c e1 53 38 32 cc ed 39 01 9e 39 36
       0.00035986822 5.0516086e-05 0.000453563 2.7659119e-06
000210 2a ff 7b 37 52 73 ac b7 81 5d 02 bb 7e a5 09 ba
       1.5020176e-05 -2.0557698e-05 -0.0019892158 -0.00052507955
000220 2e 11 4f 39 1c 1f cd 39 99 5b 54 38 e1 a4 b0 ba
       0.00019747458 0.00039123825 5.0630046e-05 -0.0013476872
000230 b0 58 63 b8 ea 60 8f bb 54 08 74 38 2c ee 11 3b
       -5.4203614e-05 -0.0043755667 5.818189e-05 0.0022267206
000240 d3 1c 2f 38 f3 2d 40 39 e5 ea 01 38 d6 79 6f 3b
       4.1750096e-05 0.00018327664 3.097476e-05 0.0036541126
000250 86 6a 0f 3b 00 ad 92 b7 52 88 92 ba 2f 05 8e 39
       0.0021883561 -1.7485116e-05 -0.0011179543 0.00027088213
000260 a2 cb 0d ba f6 f7 d1 35 86 c8 a3 b8 30 f0 18 b7
       -0.0005409067 1.564388e-06 -7.809796e-05 -9.115829e-06
000270 5e 82 41 37 1c 98 95 39 d9 a3 d1 b9 20 5d 62 bb
       1.153405e-05 0.00028532825 -0.00039985662 -0.003454037
000280 b0 53 6f 39 7a 7e c8 ba 6e fd 8e bb 5e e8 16 37
       0.00022823992 -0.0015296482 -0.0043637073 8.994799e-06
000290 08 64 b5 bb f6 45 f2 b6 13 47 e3 bc fa 8c c4 3b
       -0.0055356063 -7.2203065e-06 -0.027743852 0.005998251
0002a0 bb d2 06 35 22 02 0b b7 28 20 36 3d 88 08 75 3c
       5.0225543e-07 -8.285542e-06 0.04446426 0.014955647
0002b0 ce 44 37 3d 7b 9f 4a bc d3 a6 c2 3d 75 26 2c b9
       0.04474335 -0.012367125 0.095044754 -0.00016417525
0002c0 c4 ab 5a bc 4b ce 7d 3d 9f 55 d7 b7 b6 30 8d 3d
       -0.013346616 0.061964314 -2.5669868e-05 0.068940565
0002d0 06 77 f8 b8 81 7b 90 bc 50 7c 12 38 0c d4 03 bd
       -0.000118477314 -0.017637016 3.4924888e-05 -0.032184646
0002e0 f0 6f bc 3a e9 4b e4 3d 25 ff eb 3d a3 ab 3e bd
       0.0014376622 0.11147291 0.11523274 -0.046550404
0002f0 14 fb 66 bd c3 e8 1b bc 80 77 24 b9 3a d5 cf 3d
       -0.05639179 -0.009515944 -0.00015684776 0.101480916
000300 be 7a a3 37 a7 91 2f 37 3a a4 92 3d 7f b5 43 b9
       1.948827e-05 1.0464725e-05 0.0716023 -0.00018664262
000310 44 b1 0b 3d 33 bd af bc 61 60 cb 3c a2 b9 d7 3d
       0.0341046 -0.021452522 0.02482623 0.105334535
000320 51 75 cd b8 17 21 86 bd e7 67 bb bb 00 b2 9f bd
       -9.7970136e-05 -0.0654928 -0.0057191732 -0.07797623
000330 93 78 bc 3c b6 da 4d 3c d6 79 aa bb d6 74 b6 37
       0.023006713 0.012564352 -0.0052025123 2.1750497e-05
000340 22 16 d5 3d c6 a6 23 3d 51 13 83 bd bf 21 89 38
       0.10404612 0.03995397 -0.06400169 6.538955e-05
000350 73 3e f5 3d 79 c1 37 ba a0 5b 85 3b d2 9d 25 38
       0.11974802 -0.00070097257 0.0040697604 3.9486047e-05
000360 4d b7 e4 bc 38 d2 59 3d 5d 24 46 bd 07 e0 e3 bd
       -0.027919436 0.053178996 -0.048374522 -0.11126714
000370 91 aa 0b 36 0f 89 fb bc 24 99 b8 b8 ae bc 9b 3d
       2.0811897e-06 -0.030705003 -8.8023284e-05 0.07604347
000380 47 fc 93 bd 3d d2 bf 3a 7d 7c b1 b8 55 64 7d 3d
       -0.072258525 0.00146348 -8.4632054e-05 0.061863262
000390 9c 77 87 b9 98 6c 4f bd 9a e8 82 bd 81 dd 1e 3d
       -0.00025838322 -0.050640672 -0.063920215 0.03878546
0003a0 60 99 c7 bd df 45 12 bc 03 c7 8f bd d7 67 e0 bd
       -0.09746051 -0.008927791 -0.0702038 -0.10957306
0003b0 66 c0 3a 3d 75 67 8d 37 04 dd 2c 3d 54 7d 79 b9
       0.04559364 1.6856686e-05 0.042202964 -0.00023793179
0003c0 14 b4 96 3d 6c 22 98 bd 34 3e 96 bd 00 94 bc bc
       0.07358566 -0.074284405 -0.07336083 -0.02301979
0003d0 56 dd 2b bd 7c 0c b3 bc a9 23 79 bc d5 ca 0c b9
       -0.04195913 -0.021856539 -0.015206256 -0.00013427001
0003e0 3c 58 99 3d cd fd 2a 3b 30 5c b4 b5 82 d6 07 37
       0.074875325 0.0026091218 -1.3437875e-06 8.096571e-06
0003f0 f0 a0 61 bd 32 3b e0 3c 10 3e a0 3c ab e5 43 bd
       -0.055085123 0.027371977 0.019560844 -0.04782645

layers.3.bias f4 [92]
000000 d6 34 7b 3d 59 49 94 bb f0 0b c4 3d 96 30 90 3e
       0.061329685 -0.0045253453 0.095725894 0.28162068
000010 09 5a e9 3d e6 2a 2e 3e dc 69 3c be 2e dd 96 3e
       0.11394126 0.17008552 -0.18399757 0.29465622
000020 8f dd 26 3e 81 f3 19 3d 63 9b fb 3d ab 29 90 3e
       0.16295455 0.03758574 0.12285497 0.2815679
000030 87 05 2b 3e 4c fc 8c bd 63 a2 39 3e 56 fc 57 3e
       0.16701327 -0.06884059 0.18128352 0.21092352
000040 67 ff a9 bd f8 96 68 3e de 61 87 3e d5 65 64 3d
       -0.08300667 0.2271384 0.26441854 0.055761177
000050 88 e9 84 3a d1 8e 06 3a d6 e3 8c 3e 4a ae af 35
       0.0010140399 0.00051329756 0.27517575 1.3089241e-06
000060 d9 66 02 36 6c 64 0c 39 33 c7 0c 3d 86 3d 15 b9
       1.9431375e-06 0.0001338885 0.03436966 -0.00014232667
000070 9f ce 0b 37 91 d1 c2 38 e6 c9 13 3e ba 1b 11 3d
       8.333153e-06 9.289676e-05 0.14432487 0.035426833
000080 86 dc 2d 3e da 4e 48 3e c1 f4 59 3d 51 56 30 be
       0.16978654 0.1956133 0.05321193 -0.17220427
000090 b2 1b 1b 3e 30 49 b0 3c 36 13 e4 b8 f7 51 10 be
       0.15147284 0.021519274 -0.000108754655 -0.14093767
0000a0 ad c4 90 b4 e4 65 4c 3e c6 f0 46 3e 41 19 4d 3d
       -2.696519e-07 0.19960743 0.19427785 0.050072912
0000b0 2f 74 34 3e dc 50 95 b8 b8 79 06 bc be 47 6d 3e
       0.17622446 -7.119935e-05 -0.008207731 0.23171899
0000c0 f7 71 64 36 c7 17 15 36 b6 4c d3 b7 3d 70 02 bc
       3.4040984e-06 2.221657e-06 -2.5188881e-05 -0.00796133
0000d0 f5 68 5e bb 70 c4 47 3e fa 83 48 3e f2 67 50 b8
       -0.003393707 0.19508529 0.19581595 -4.968787e-05
0000e0 b0 d3 68 3e 4c 42 86 3e 49 c8 b6 bd 7d 93 d4 b6
       0.22737002 0.26222456 -0.0892492 -6.3352622e-06
0000f0 e3 07 9b 36 b9 d3 49 3e 09 0c 11 3d 9a 4f f2 ba
       4.620278e-06 0.19709672 0.03541187 -0.0018486858
000100 b6 a4 99 3b 26 ea 86 3e 29 39 a8 bd 84 8e 26 be
       0.0046888245 0.26350516 -0.082140274 -0.16265303
000110 fc d3 84 3e 3c 3c a8 b8 76 d8 6e 3e 86 6e 96 3e
       0.2594298 -8.022084e-05 0.23324761 0.29381198
000120 19 c4 47 3e 58 34 17 3d f2 70 7c be 91 18 18 3d
       0.19508399 0.036915153 -0.2465246 0.037132803
000130 4a 8a 89 3e 64 6e a5 bd 5d cc 76 3e f4 d9 80 be
       0.2686332 -0.08077696 0.24101396 -0.25166285
000140 38 9e 09 3e 3d 92 e8 bd 5f 5f cd 3d 1b f2 eb 3d
       0.13439262 -0.11356018 0.10027956 0.11520787
000150 68 30 06 3e 05 60 4d 36 dd b3 90 b8 65 cf c6 b5
       0.13104403 3.0603271e-06 -6.899957e-05 -1.4812509e-06
000160 90 e2 97 3b e6 54 94 3e f8 2a 2b be 93 da 93 3e
       0.0046351627 0.28971022 -0.1671561 0.28877696

layers.4.weight f4 [102, 92]
000000 20 ab 2f b8 79 2c 96 37 2b 6e ae 36 10 b6 99 b8
       -4.1882624e-05 1.7902103e-05 5.1984293e-06 -7.32952e-05
000010 22 e6 52 b6 79 82 0b b8 79 9d 00 b8 86 0c 2f b8
       -3.1426393e-06 -3.3261695e-05 -3.0664236e-05 -4.1734915e-05
000020 08 64 34 37 7a 37 60 37 c4 22 76 36 42 5f e0 b8
       1.0752126e-05 1.3364357e-05 3.6677093e-06 -0.000106988955
000030 c2 d9 b9 38 ce d4 83 b8 9d 11 6c 36 37 85 b8 38
       8.862048e-05 -6.286205e-05 3.5176993e-06 8.798617e-05
000040 3b b3 d6 35 e1 4f cf b5 e7 33 38 b6 79 4d 4a 34
       1.5996405e-06 -1.544595e-06 -2.7448348e-06 1.88409e-07
000050 49 c0 26 b5 af 9a af b6 41 0e 27 b7 a6 fd 63 b7
       -6.211963e-07 -5.233414e-06 -9.957294e-06 -1.35893115e-05
000060 65 f1 c9 35 ff 64 81 b7 f5 4f 75 b6 40 f6 d1 36
       1.5045922e-06 -1.5425028e-05 -3.6554386e-06 6.2573527e-06
000070 36 9b ee b8 fe 1e 59 b8 0e 0f 8d 37 52 82 42 37
       -0.00011377635 -5.1765695e-05 1.681552e-05 1.1593644e-05
000080 96 90 fc b6 20 8f 5b 38 0d 92 99 b8 c6 89 a3 b5
       -7.5270173e-06 5.2346964e-05 -7.3228126e-05 -1.2184544e-06
000090 13 c8 35 b7 92 79 7e b8 17 31 78 b8 70 11 d1 36
       -1.0835024e-05 -6.067154e-05 -5.9173526e-05 6.2307154e-06
0000a0 f4 62 bd b5 9c 22 b6 35 e5 5b 91 37 4a 5e 08 b8
       -1.4110396e-06 1.3570129e-06 1.7328139e-05 -3.251274e-05
0000b0 3c d1 2b 34 d2 e7 55 b8 15 20 e0 b2 10 a2 c5 34
       1.6001735e-07 -5.0999057e-05 -2.6091621e-08 3.6812025e-07
0000c0 a3 2c e7 34 28 43 6a b6 3a 44 a5 38 85 9e 26 36
       4.305958e-07 -3.4907807e-06 7.880521e-05 2.4828198e-06
0000d0 99 40 c5 b8 88 32 68 b7 57 f9 39 37 ac db 4b b8
       -9.405724e-05 -1.3840043e-05 1.1084913e-05 -4.8603557e-05
0000e0 ee 05 cf 37 53 d9 55 b3 20 a6 2f 36 97 4e fb 35
       2.4679084e-05 -4.9790582e-08 2.617373e-06 1.872383e-06
0000f0 2e ec b2 b8 65 bd 26 36 17 3b 03 37 ba 99 62 b6
       -8.531693e-05 2.484617e-06 7.821966e-06 -3.3766105e-06
000100 b4 f8 0f b7 c7 e8 71 37 b0 4b c1 b8 de b0 f6 b7
       -8.58137e-06 1.4418917e-05 -9.217055e-05 -2.9407845e-05
000110 4f 73 7d 37 39 5c 04 37 2c c4 d1 37 e5 e2 7b 36
       1.51068225e-05 7.889285e-06 2.5006091e-05 3.7533985e-06
000120 fc 09 58 37 e3 b8 d8 b7 0d 84 a7 b4 d7 89 4b b8
       1.2876928e-05 -2.5835301e-05 -3.1202254e-07 -4.8527345e-05
000130 ff e4 8d b8 90 a7 26 b7 27 2d 97 35 18 25 82 37
       -6.766058e-05 -9.933385e-06 1.1263518e-06 1.551448e-05
000140 aa d3 ce b6 ce 58 8e b7 2c fd ab 35 f2 3e 03 35
       -6.1639194e-06 -1.6969072e-05 1.2814176e-06 4.88929e-07
000150 bd 80 1f b8 d8 4d e8 b8 93 30 f9 b0 94 f7 79 38
       -3.802845e-05 -0.000110771216 -1.813094e-09 5.95968e-05
000160 67 a8 14 38 d5 9c fb b7 30 8d 95 37 34 de 89 b5
       3.5442787e-05 -2.9994562e-05 1.782793e-05 -1.0271965e-06
000170 29 84 a2 3c 26 d1 22 38 a5 3a c0 bd 12 8b eb 3d
       0.01983841 3.8818594e-05 -0.093861856 0.11501135
000180 a4 59 42 3d 7b 51 83 3d 43 06 30 bd dc d9 7c 3d
       0.04744877 0.064120255 -0.04297472 0.061731204
000190 dc 43 d0 3d 6d ad 5a bc bd 7a 8a 3d 37 00 8d 3c
       0.10169193 -0.013347012 0.06761692 0.017212017
0001a0 49 d2 79 3d 39 40 a7 bd 05 80 93 bd 32 9d e9 3d
       0.06099156 -0.081665464 -0.07202152 0.11406936
0001b0 2c 10 93 bd 81 82 98 3d 43 0c 9a bd 5b d2 ac 3a
       -0.07180819 0.07446767 -0.0752187 0.0013185249
0001c0 27 14 b5 37 b3 c0 ab b6 4b f8 5e 3d 47 7c e7 37
       2.1586266e-05 -5.1186303e-06 0.05443601 2.7595217e-05
0001d0 15 14 ed b8 ab 09 41 bd cd 5c 79 3d d7 e6 81 35
       -0.00011304781 -0.04712836 0.060879517 9.678432e-07
0001e0 e9 05 83 36 5d f6 ad 39 f2 6c 97 3d ea d9 65 3d
       3.9047923e-06 0.00033180686 0.073938265 0.056116022
0001f0 a1 50 b6 3d fe 00 e5 3c 15 5f cc 3d 80 00 25 3d
       0.089020975 0.027954575 0.09979073 0.04028368
000200 85 a0 b8 3d 1b 92 3e bd 0f 2e b0 38 e8 d2 e3 bc
       0.09014992 -0.046526056 8.400913e-05 -0.027810529
000210 51 e2 13 3b 45 c7 16 3d 0c f6 ab 3d 50 99 9a bd
       0.0022565315 0.036811132 0.08396539 -0.07548773
000220 3a 16 b2 bd e2 c2 2c b9 9e 25 19 bc 4e b5 64 bc
       -0.08695646 -0.00016475798 -0.009347348 -0.013959242
000230 fb 67 59 b5 8d 6b b1 34 3a 15 1c 38 21 fd ec bb
       -8.099011e-07 3.3047073e-07 3.7213067e-05 -0.0072323238
000240 ef db 46 bb fe f1 46 bc 15 79 8a 3d fb 4c ee 35
       -0.0030343493 -0.012142656 0.06761376 1.7754786e-06
000250 6e c5 a8 bd dc 0f a8 3d aa b1 db bd 4f db 09 35
       -0.08240782 0.0820615 -0.10727246 5.1355613e-07
000260 40 00 2e b8 21 8b 93 3d 57 f7 c8 3d 56 58 31 ba
       -4.1485066e-05 0.07204271 0.09812801 -0.0006765177
000270 33 7c 61 3d 94 2c 89 3d f2 b0 a9 bd 5a 36 f0 bd
       0.055050086 0.06697956 -0.08285703 -0.11729117
000280 cb c0 01 bc 65 b3 1f b8 bb 1b c0 3c 1b bc a5 bd
       -0.007919501 -3.807563e-05 0.023450723 -0.08092519
000290 14 73 e7 bc 47 05 bf bd 83 0c 43 3c 87 38 13 bd
       -0.028253116 -0.093271784 0.0119048385 -0.03594258
0002a0 1d 05 9c 3d 8f d7 a4 bd 3f e6 e8 3c 42 3f 94 bd
       0.07618163 -0.08048927 0.028430102 -0.07238628
0002b0 e2 2f 6e 3d 04 eb f4 3c f4 20 ca 3d fc 65 29 bd
       0.058151133 0.02989722 0.098695666 -0.041357026
0002c0 f0 c5 a7 3d bf df 36 36 f2 bf f0 b6 82 43 90 38
       0.081920505 2.725035e-06 -7.1749027e-06 6.8790294e-05
0002d0 a7 a9 46 3c 96 62 2b 3d 75 d4 ab bd a9 e6 5b 3a
       0.012125409 0.041842066 -0.08390132 0.0008388558
0002e0 51 5d 94 3d da b6 03 b6 b6 30 c1 bd f9 80 63 3d
       0.07244361 -1.9626955e-06 -0.09433119 0.05554292
0002f0 15 32 c1 3d 73 76 89 bd e3 c0 c3 bd 45 26 14 bb
       0.094333805 -0.067120455 -0.095582746 -0.0022605818
000300 3e 84 bb 3d 31 00 1a bd 1b a4 4d 3d 37 ee 04 3d
       0.091560826 -0.03759784 0.05020533 0.032453742
000310 6b bc d6 3d f4 c2 99 bd 06 5a 03 bd 4d 49 e9 3d
       0.104851566 -0.075078875 -0.032068275 0.11390934
000320 7f a4 5f bd f5 fc da 3c 21 1a 3c 3b c8 75 cf 3b
       -0.054600235 0.026731947 0.0028702097 0.0063311793
000330 4b 99 04 ba 40 78 84 b8 81 54 56 3d 42 2b 64 b7
       -0.0005058243 -6.316649e-05 0.052326683 -1.3599931e-05
000340 5d 47 e6 37 5b 32 f3 39 47 6d 89 bc e7 97 79 b5
       2.7451368e-05 0.0004638609 -0.01677574 -9.2980775e-07
000350 f9 e4 63 36 d5 b9 d3 ba 12 ce 09 bc 8d 18 c6 3d
       3.3958916e-06 -0.0016153405 -0.008410947 0.096726514
000360 9e 93 f6 bc e1 64 dc 3d 9d 97 88 bd 94 50 44 3d
       -0.030099686 0.107614286 -0.06669543 0.047928408
000370 e3 37 85 bd 76 7c 81 3d 13 0b 32 38 be 66 91 bd
       -0.065048 0.06322567 4.244882e-05 -0.07099675
000380 73 50 ed b3 c2 a5 4a bd c9 90 a2 3d 52 09 14 bd
       -1.1050806e-07 -0.049474485 0.07937772 -0.0361417
000390 10 95 e4 3d 32 e3 51 38 cd af 99 bb 0b 3c 90 3d
       0.11161244 5.0041075e-05 -0.0046901465 0.07042702
0003a0 2b 59 4e 36 26 6c 55 33 f7 7b b0 38 77 7d db 3a
       3.0748295e-06 4.9691288e-08 8.415424e-05 0.0016745765
0003b0 fe 56 40 bb 0f 24 ac 3d ee 2c bf b8 32 8d 3e b6
       -0.0029348726 0.08405315 -9.1159585e-05 -2.8394393e-06
0003c0 69 3c 3e 3d d7 d2 cd 3d c0 1d 83 bb 7f 94 a0 38
       0.04644433 0.1004998 -0.004001349 7.657054e-05
0003d0 c6 f9 f7 b8 61 87 a9 bd 70 50 ad bd 52 c7 fb 3a
       -0.00011824402 -0.082777746 -0.08462608 0.0019209182
0003e0 0d 84 c6 3d 7a 82 32 3d b5 03 c6 3a 06 a5 9b 3b
       0.096931554 0.043581463 0.0015107306 0.004749897
0003f0 66 fa 18 bd a4 59 8a b8 b2 2b 88 3d 63 f6 e4 3d
       -0.037348174 -6.59705e-05 0.06648959 0.11179807

layers.4.bias f4 [102]
000000 7b f7 16 36 39 41 0d 3e 58 e5 7f 3e e9 76 7e b8
       2.2495794e-06 0.13794412 0.24989831 -6.0669063e-05
000010 99 7f ce b7 5f 4a 06 3e f3 3d e8 3d 2d d6 e3 39
       -2.4616531e-05 0.13114308 0.11339941 0.00043456387
000020 9c ea 77 3e 31 f9 d0 3d f2 3d 59 bd ed f1 3e b9
       0.2421059 0.102037795 -0.05303759 -0.00018209936
000030 7d 30 b8 b7 5a 9d 9b 3b 56 02 7b 3e 66 0b 8b 3e
       -2.1957088e-05 0.0047489824 0.2451261 0.27157134
000040 0a 27 0c 3b 4b da 03 3e 0a 09 44 3e 6f f7 8c b6
       0.0021385574 0.12876241 0.19144073 -4.20113e-06
000050 82 da 53 3e 82 80 78 3e 1e 17 83 3d 3c 42 aa 3d
       0.20688823 0.24267772 0.06400894 0.083134145
000060 01 8e 18 38 2a 07 d6 b7 17 51 1a 3e 14 6a c2 bd
       3.6371875e-05 -2.5514124e-05 0.15069996 -0.09492889
000070 40 3d 47 be c6 d6 90 3e 4a 30 09 3e ef 2a 66 3e
       -0.19456959 0.2828886 0.13397327 0.22477315
000080 4b ea 41 b6 7c 95 08 b8 97 bb 54 bb 7a 4a 7b 3e
       -2.8895618e-06 -3.2564145e-05 -0.0032460445 0.2454013
000090 03 dd b7 3c b6 83 f3 36 74 04 99 b8 44 22 4c 3e
       0.022444254 7.2572975e-06 -7.296438e-05 0.19934946
0000a0 20 ee ea bc f0 0d 91 3e 5f 2a 1a 35 31 fa 75 3e
       -0.028678 0.28330946 5.743113e-07 0.24021222
0000b0 db c2 83 3e 63 b4 2a bc a3 e5 5e 3e 63 ac b0 bb
       0.257346 -0.010418984 0.21767287 -0.005391644
0000c0 d2 71 c3 3a 5a ab 7d 3e 84 ce 01 3e 4b 5d 40 38
       0.001491124 0.24772397 0.12676436 4.5863253e-05
0000d0 d3 70 5f 3e 61 03 6b 3e c3 05 5e 3e 65 6b 83 b7
       0.21820383 0.22950508 0.21681885 -1.5666426e-05
0000e0 69 a1 9f 3d 28 87 a2 37 34 91 88 b4 65 04 d9 38
       0.077944584 1.9374842e-05 -2.5437623e-07 0.00010348185
0000f0 cc 5a 56 3e 39 c1 14 bb 77 ab bd ba 47 d7 99 bb
       0.20933074 -0.0022698177 -0.0014470656 -0.0046948525
000100 cf 0a 9d 3d d1 10 63 bb b1 d1 18 3e c6 41 15 ba
       0.07668077 -0.0034647475 0.14923741 -0.00056937
000110 7d 3e a5 3d 5f 1a 2b 37 74 77 4b 3e cb ca 74 3e
       0.08068559 1.0198534e-05 0.19869787 0.23905484
000120 5d 2c 91 3e 09 44 3d 3e ef db 51 b4 fc 14 58 b8
       0.2835416 0.18482985 -1.9544653e-07 -5.1517956e-05
000130 88 99 9d 3b 07 e8 4f be 5f df 78 3d 34 57 8d bd
       0.004809562 -0.20303355 0.0607599 -0.06901398
000140 d6 c5 08 3e 7c 6a 99 3d 0e 02 8e 38 e8 21 ea 3d
       0.13356718 0.074910134 6.77147e-05 0.11432248
000150 f8 dd 80 be d3 2c 5e 3e a9 4f 2d 3e c6 ec ac 3d
       -0.2516935 0.21696787 0.16924919 0.084435984
000160 30 2d cb ba b0 14 9d 3c ec 46 83 35 d5 66 c4 3d
       -0.0015501138 0.019174904 9.780902e-07 0.09589926
000170 8a 09 6e b8 0f 03 0f 3e e7 0e 83 3e 0c 7c 6e 3e
       -5.6752506e-05 0.1396601 0.25597307 0.23289508
000180 cb ff ca 34 b4 03 64 3d ff d5 49 3e 9a 58 09 bd
       3.7811546e-07 0.055667594 0.1971054 -0.033531763
000190 30 90 43 3e 5e a0 05 3e
       0.19097972 0.13049456
