fnn_FeatureRegression/fnn_aug17all.pt (torch, 584807 bytes, 28 tensors)

layers.0.weight f4 [64, 48]
0	0x3d3ffaba	0.04686997
1	0x3ce0e2f6	0.027451973
2	0x3dab036d	0.08350263
3	0x3dfcdb80	0.12346554
4	0x3d29e70e	0.041480117
5	0xbd5a9703	-0.053366672
6	0x3ddd302e	0.10800205
7	0xbe06f4ee	-0.13179371
8	0x3d69eaab	0.057108562
9	0xbd169e7a	-0.03677223
10	0xbdd87fdd	-0.10571263
11	0xbdb562b8	-0.0885672
12	0x3fc89dd4	1.5673165
13	0xbccf9086	-0.025337469
14	0x3d9e61fc	0.07733533
15	0xbdb68180	-0.08911419
16	0xbc302fbb	-0.010753567
17	0x3b1cbbc6	0.0023915633
18	0x3dbbb88e	0.091660604
19	0xbd7717c8	-0.060325414
20	0x3fc106ba	1.5080178
21	0x3cfc1820	0.030773222
22	0x3d480c90	0.048840106
23	0x3d80fe61	0.06298519
24	0x3c15d736	0.009145549
25	0x3da282c2	0.07935096
26	0xbe0bfbc5	-0.13670261
27	0x3e0bbeff	0.13647078
28	0xbd1bf9ea	-0.038080133
29	0x3d1b5b24	0.037928715
30	0x3d843017	0.06454485
31	0xbd9f43a5	-0.07776574
32	0x3fc5cde7	1.5453461
33	0xbccd7421	-0.025079789
34	0xbcecef56	-0.028922718
35	0xbc8150ff	-0.015785692
36	0xbd094c86	-0.033520244
37	0xbcf41261	-0.02979392
38	0xbce1fac3	-0.027585393
39	0x3d5a8e79	0.05335853
40	0x3fb0730d	1.3785111
41	0x3d47d86a	0.048790373
42	0xbdb59a61	-0.08867336
43	0x3d3d08ec	0.046151087
44	0xbd1fc3ed	-0.03900521
45	0xbce3c7e6	-0.02780528
46	0xbd83b7c8	-0.06431538
47	0x3d74ecb4	0.05979605
48	0x3d3e3c34	0.046444133
49	0xbd221240	-0.039568186
50	0x3e370ad6	0.17875227
51	0xbd5d910a	-0.0540934
52	0x3d37dff1	0.0448913
53	0x3be9f31d	0.007139577
54	0xbee1d957	-0.4411113
55	0x3b9560aa	0.0045586424
56	0x399120db	0.00027681034
57	0xbd8ecd50	-0.06972754
58	0x3b254309	0.0025216958
59	0xbdbb0853	-0.09132447
60	0x3caf19cd	0.021374607
61	0x3d6ef642	0.05834032
62	0x3fa087db	1.254146
63	0xbc98f372	-0.018670771
64	0xbd6cf670	-0.05785221
65	0xbc1d9b00	-0.009619474
66	0xbece0cf0	-0.40244246
67	0xbcdccb8b	-0.026952526
68	0x3cc825a5	0.024432013
69	0xbd9c704e	-0.07638608
70	0x3fb4bced	1.4120156
71	0x3cfdf1c6	0.030999076
72	0x3d3b6508	0.045750648
73	0x3cee849f	0.029115973
74	0xbf1bd37c	-0.60869575
75	0xbdb553af	-0.08853852
76	0xbdf0fd64	-0.117670804
77	0x3dfda67d	0.12385271
78	0x3da19f64	0.078917295
79	0x3c150671	0.009095774
80	0xbdf934f0	-0.121683
81	0xbb2bcdc0	-0.0026215166
82	0x3fb94135	1.4473025
83	0x3d8ebc78	0.06969541
84	0x3d82ce65	0.06387023
85	0xbcf1d5df	-0.029520927
86	0xbd321336	-0.043475352
87	0x3dcd1430	0.10013616
88	0x3dab7a3e	0.08372925
89	0x3cf75a22	0.030194346
90	0x3fb02521	1.3761331
91	0xbdb11c07	-0.08647924
92	0xbd565ae9	-0.052332792
93	0xbce2ef43	-0.02770198
94	0xbefb4cce	-0.49082035
95	0x3db4c813	0.08827224
96	0xbda03b8f	-0.0782386
97	0x3d3eb824	0.04656233
98	0xbd5f9b68	-0.054591566
99	0x3c283417	0.010266325
100	0x3c4fcda0	0.012683302
101	0x3dbf7557	0.09348553
102	0x3c8522db	0.016251972
103	0xbe0471b6	-0.12934002
104	0xbd6725a6	-0.05643239
105	0x3d717a62	0.058954604
106	0xbe2c7184	-0.16840178
107	0xbd506678	-0.05087897
108	0x3d2665f5	0.040624578
109	0xbdecb929	-0.11558754
110	0x3f958991	1.1682607
111	0x3e125cc3	0.14293198
112	0x3dd91272	0.10599221
113	0x3db63583	0.08896925
114	0xbc4c24aa	-0.012459913
115	0x3d4a5101	0.049393658
116	0x3cbd3f3b	0.02310144
117	0x3d9c4256	0.0762984
118	0x3f90c72c	1.1310782
119	0xbdaabc56	-0.083367035
120	0xbd2b6127	-0.0418407
121	0xbe2594c8	-0.16170037
122	0xbdb601c5	-0.08887056
123	0x3bc35729	0.005961318
124	0x3dca1a1e	0.09868263
125	0xbcf38ae4	-0.029729314
126	0xbd8431ab	-0.06454786
127	0x3c577a61	0.013151736
128	0xbd3a1462	-0.045429595
129	0xbd2c9139	-0.042130683
130	0x3f949179	1.1606895
131	0xbdbaf305	-0.091283835
132	0x3d87ca8d	0.0663043
133	0xbdb64438	-0.088997304
134	0x3c7f1160	0.015568107
135	0xbc98b5c7	-0.018641366
136	0xbcb704bf	-0.02234113
137	0x3e1a99d1	0.15097739
138	0x3fa00dee	1.2504251
139	0xbd222975	-0.039590318
140	0xbda73be7	-0.08165722
141	0xbd0a4826	-0.033760212
142	0xbd32c0c3	-0.043640863
143	0x3d0fb478	0.035084218
144	0x3fb8c9b0	1.443655
145	0x3ad23cdb	0.0016039865
146	0xbbdb5a86	-0.006694141
147	0x3df5fc3d	0.12011001
148	0xbdbd73dc	-0.09250614
149	0xbd5cb0ed	-0.053879667
150	0xbda6aca9	-0.08138401
151	0xbdc638e2	-0.09678818
152	0x3fbeae7d	1.4897
153	0x3d10e2a3	0.035372388
154	0xbde305aa	-0.11085065
155	0xbcda1fcf	-0.026626496
156	0xbe27bd01	-0.16380693
157	0x3dfc647d	0.12323854
158	0x3e04100e	0.1289675
159	0xbdb2ebb7	-0.08736365
160	0xbcbc83a5	-0.023011992
161	0x3d661e23	0.056181084
162	0xbc257c45	-0.010100429
163	0x3db0291d	0.08601592
164	0x3dbb5930	0.091478705
165	0x3d437e09	0.04772762
166	0x3d065bb6	0.032802306
167	0x3d0a11a3	0.033708226
168	0x3d3c0d61	0.045911197
169	0x3d1523e0	0.036411166
170	0x3dda0a11	0.10646451
171	0x3d5b9a4f	0.053613957
172	0x3fc24a75	1.5178972
173	0xbde2e5f6	-0.11079018
174	0x3d2cf7c5	0.04222848
175	0xbe0a2d43	-0.13493828
176	0x3d03792f	0.03209799
177	0xbd656619	-0.05600557
178	0xbdcfcd3b	-0.101465665
179	0xbc506218	-0.0127187
180	0x3fd396f0	1.6530437
181	0x3d9ac196	0.07556455
182	0x3d9aae6f	0.07552802
183	0x3d2ad582	0.041707523
184	0xbda8f23a	-0.08249326
185	0xbdeb71fc	-0.1149635
186	0xbd8057e7	-0.06266766
187	0x3d82e3c3	0.06391098
188	0x3d91504c	0.070953935
189	0xbd1eedad	-0.038800884
190	0xbc80a8d7	-0.01570551
191	0xbd3063e3	-0.04306401
192	0xbbf4681f	-0.0074587013
193	0xbe0ba43e	-0.13636872
194	0x3c4cc2ec	0.012497645
195	0xbcc6f75f	-0.024287878
196	0x3bfe594d	0.0077621103
197	0x3da6c2fa	0.081426576
198	0xbcb01d40	-0.021498322
199	0xbe0216c2	-0.12703994
200	0x3da6a743	0.081373714
201	0x3ceec9b3	0.029148912
202	0x3e1c52c8	0.15265954
203	0x3c207cb6	0.009795358
204	0x3d68a708	0.05679992
205	0xbe10d912	-0.14145306
206	0xbf32e2fa	-0.6987759
207	0xbcb60c50	-0.022222668
208	0x3c6b8192	0.014374154
209	0xbd833545	-0.06406645
210	0x3dec3327	0.11533194
211	0x3da43f6e	0.08019911
212	0x3d61af67	0.055098917
213	0xbdcc2c34	-0.099693686
214	0xbf4116ce	-0.7542542
215	0x3d8e97ca	0.06962545
216	0x3d85e786	0.065383
217	0xbdd26eeb	-0.10275062
218	0x3deea028	0.11651641
219	0xbcc72869	-0.024311261
220	0xbe0996ab	-0.13436382
221	0x3d87b6f2	0.06626691
222	0x3dc4e6d5	0.0961434
223	0xbd81cb68	-0.06337625
224	0xbd9387c3	-0.07203629
225	0x3e0359da	0.12827244
226	0xbf5ef89a	-0.87098086
227	0xbceb1bb3	-0.028699731
228	0x3d90fc3a	0.070793584
229	0x3d1a96e3	0.037741553
230	0xbba417b9	-0.005007711
231	0x3daba749	0.083815165
232	0xbd9ac33a	-0.07556768
233	0xbd9c4bda	-0.07631655
234	0xbf56549c	-0.83722854
235	0x3c87d7b7	0.016582353
236	0xbdac5f06	-0.08416562
237	0x3daf56cd	0.08561478
238	0x3dbb6acd	0.0915123
239	0x3da69aed	0.081350185
240	0xbc49294c	-0.012277912
241	0x3df80578	0.12110418
242	0xbe998c30	-0.29989767
243	0x3e0aeeb3	0.13567619
244	0xbea62293	-0.32448253
245	0x3cd946c8	0.026523009
246	0x3e6e5309	0.23273863
247	0x3cddad66	0.027060222
248	0x3dba762d	0.091045715
249	0xbe1fea67	-0.15616761
250	0xbe6eab6a	-0.23307577
251	0x3e0b770a	0.13619629
252	0xbebeb41b	-0.37246785
253	0x3be788eb	0.0070658824
254	0x3e964ecf	0.29357
255	0xbd9c8add	-0.076436736

layers.0.bias f4 [64]
0	0x3e065efb	0.1312217
1	0xbebdcd58	-0.37070727
2	0xbf562712	-0.83653367
3	0xbe4fd879	-0.20297422
4	0x401cd280	2.450348
5	0x3fc246c3	1.5177845
6	0xbc35aadb	-0.011088098
7	0xbef8960b	-0.48551974
8	0xbe19ece7	-0.15031777
9	0x3ef49018	0.47766185
10	0xbf6b3ccc	-0.91889644
11	0xbd782072	-0.060577817
12	0xbfa53d8b	-1.2909406
13	0x3dbf696e	0.09346281
14	0xbef6c42d	-0.48196545
15	0x4080c98d	4.0246034
16	0xc0198550	-2.3987617
17	0xbf205ca2	-0.62641346
18	0xbfac32ff	-1.3453063
19	0xbe003d96	-0.12523493
20	0xbfc90190	-1.5703602
21	0x89139973	-1.7766633e-33
22	0x40126a7c	2.2877493
23	0x404e0485	3.2190259
24	0xbe9fcb33	-0.31209716
25	0x901e7b9f	-3.125524e-29
26	0xbf696516	-0.9116987
27	0x3f2f332f	0.68437475
28	0x402d7d93	2.7107894
29	0x3ece369e	0.40276045
30	0xbf99084e	-1.1955659
31	0xbf29fe5b	-0.6640374
32	0xbe6e00f8	-0.23242557
33	0x3f32567d	0.6966322
34	0x3f4cf870	0.80066586
35	0x3ef54a0e	0.47908062
36	0x861a8e01	-2.906851e-35
37	0xbf0947e3	-0.53625315
38	0xbef453fb	-0.47720322
39	0xbf0ce893	-0.5504238
40	0x3f08db38	0.534595
41	0xbfca765a	-1.5817368
42	0x3f01607c	0.5053785
43	0xbf3a932d	-0.7288082
44	0xbf08c127	-0.5341973
45	0x3eaa683a	0.33282644
46	0x401ec25d	2.480613
47	0x3ee1f2ee	0.44130653
48	0x8e404ce2	-2.3702845e-30
49	0x4019942e	2.3996692
50	0xbf8ebd28	-1.1151476
51	0x3f82e8a2	1.0227244
52	0xbed72141	-0.42017558
53	0xbed8bf7f	-0.423336
54	0xbea564f0	-0.32303572
55	0xbe6f00c5	-0.23340137
56	0xbf0d5716	-0.5521101
57	0xbb7bfe1f	-0.0038451029
58	0x3e11f018	0.14251745
59	0xbe9637ae	-0.29339355
60	0x3f3e0f05	0.7424167
61	0x81158338	-2.7461123e-38
62	0xbf32c7ed	-0.6983631
63	0x825fea2a	-1.6450654e-37

layers.1.weight f4 [72, 64]
0	0xbccb365e	-0.024806198
1	0xbd443007	-0.047897365
2	0xbc2ea76c	-0.010660034
3	0xbd345d5c	-0.044034347
4	0x3da85482	0.082192436
5	0x3d8ab628	0.06773025
6	0x3e86820b	0.2627109
7	0xbc3c26c8	-0.011483856
8	0x3c361208	0.011112697
9	0x3ce001eb	0.027344665
10	0xbc595427	-0.013264692
11	0x3e83fded	0.25779667
12	0xbc8b6e3e	-0.017020341
13	0xbdbbd4cc	-0.09171447
14	0x3d793a3c	0.060846552
15	0x3e61f89b	0.22067492
16	0x3d826275	0.063664354
17	0xbc8964b7	-0.016771657
18	0x3cdd52f2	0.02701709
19	0xbdb8cea8	-0.090237916
20	0xbdb3e180	-0.08783245
21	0x8ad4b53b	-2.0483029e-32
22	0xbda01f47	-0.07818466
23	0x3d92624f	0.07147657
24	0xbd36fe95	-0.044676382
25	0x101b9981	3.0686615e-29
26	0x3d0f7dfa	0.03503225
27	0xbdfd56f7	-0.12370103
28	0x3d713ad7	0.058894005
29	0x3c04399e	0.008070378
30	0x3d47bb57	0.048762646
31	0xbd005ec5	-0.03134038
32	0x3d9b4732	0.07581939
33	0x3ec3bfb5	0.38232198
34	0xbd56bd4d	-0.052426625
35	0x3d36225d	0.044466365
36	0x0c06bba2	1.0379448e-31
37	0xba4174d2	-0.00073797733
38	0x3cd7cc1d	0.026342446
39	0xbd8cd35d	-0.06876252
40	0x3d1bc113	0.038025927
41	0x3df3283f	0.11872911
42	0x3cda6ed2	0.026664171
43	0x3d52e1f1	0.051485006
44	0x3c3480cb	0.011017035
45	0xbd1b8738	-0.03797075
46	0xbe1e9133	-0.15485077
47	0x3d329f58	0.043608993
48	0x0b307f55	3.399216e-32
49	0xbdff51c7	-0.1246677
50	0xbc272de6	-0.010203814
51	0x3d824626	0.06361036
52	0xbd2307b8	-0.039802283
53	0x3cc62d37	0.024191482
54	0x3cf6c583	0.030123478
55	0x3d17dce4	0.037075892
56	0x3dbaed05	0.09127239
57	0xbb47dae2	-0.0030495455
58	0xbda680d3	-0.0813004
59	0xbd9d7884	-0.07689002
60	0x3d18dcc0	0.0373199
61	0x011e2c88	2.9051966e-38
62	0xbcda0911	-0.026615651
63	0x84de7030	-5.2294977e-36
64	0x85585b45	-1.0173035e-35
65	0x84dd8815	-5.2081822e-36
66	0x85048a57	-6.232019e-36
67	0x859e7d9d	-1.4904392e-35
68	0x810b2c78	-2.5562173e-38
69	0x85532643	-9.9282e-36
70	0x85b14187	-1.6669071e-35
71	0x854d6b06	-9.658711e-36
72	0x851514e8	-7.009786e-36
73	0x8523c02d	-7.69952e-36
74	0x8526b7bf	-7.839031e-36
75	0x8580b9bc	-1.210529e-35
76	0x803f8290	-5.832473e-39
77	0x852bc346	-8.0762474e-36
78	0x85030b51	-6.161669e-36
79	0x00859cf0	1.227042e-38
80	0x0079bf50	1.1180725e-38
81	0x85230b63	-7.6663146e-36
82	0x82e637d0	-3.3827497e-37
83	0x81562c70	-3.9337475e-38
84	0x80fb4d70	-2.3078489e-38
85	0x00b22a90	1.6361987e-38
86	0x84b8e494	-4.3468108e-36
87	0x8488c42d	-3.2153605e-36
88	0x84dc8680	-5.184527e-36
89	0x80a74650	-1.5361751e-38
90	0x853da8df	-8.917754e-36
91	0x00167e10	2.065604e-39
92	0x85098ec3	-6.46793e-36
93	0x006868d0	9.588491e-39
94	0x853f9614	-9.008342e-36
95	0x003be390	5.499928e-39
96	0x007d5b30	1.1512149e-38
97	0x80f6ce50	-2.2665543e-38
98	0x85b4a660	-1.6988235e-35
99	0x80d00410	-1.910324e-38
100	0x006b9510	9.879872e-39
101	0x84ea2f2f	-5.5056467e-36
102	0x854546b5	-9.275882e-36
103	0x842caa7a	-2.0296782e-36
104	0x8577f1f8	-1.1658327e-35
105	0x849e6728	-3.7240356e-36
106	0x84d6ee40	-5.0529956e-36
107	0x8515d30f	-7.044712e-36
108	0x80155330	-1.958387e-39
109	0x857a8c95	-1.1780764e-35
110	0x858df3bc	-1.334911e-35
111	0x853e10a7	-8.9368156e-36
112	0x8116c788	-2.7693805e-38
113	0x8519b19a	-7.226646e-36
114	0x008ee1b0	1.3121602e-38
115	0x84888d84	-3.2103408e-36
116	0x85766c71	-1.1586782e-35
117	0x85518c80	-9.8529385e-36
118	0x838fdc3e	-8.45535e-37
119	0x8001bf90	-1.60555e-40
120	0x84dc3abc	-5.177569e-36
121	0x00b05610	1.6193921e-38
122	0x012c1ff0	3.1614325e-38
123	0x85ad3c9e	-1.6291109e-35
124	0x8519baf5	-7.228364e-36
125	0x00ec1af0	2.168284e-38
126	0x0104cce8	2.4391584e-38
127	0x00f9c570	2.2937866e-38
128	0xbcf4f84d	-0.029903555
129	0x3bd6e63e	0.0065582087
130	0xba660de5	-0.0008775874
131	0x3aea3f38	0.0017871624
132	0x3dd30a8c	0.10304746
133	0xbdcc6a5d	-0.09981225
134	0x3cbaefeb	0.02281948
135	0xbdb39eaf	-0.08770501
136	0x3d867125	0.06564549
137	0xbe305c75	-0.1722277
138	0x3bcb6c59	0.0062079844
139	0x3d04d20d	0.032426883
140	0xbd825162	-0.06363179
141	0xbce07df6	-0.027403813
142	0x3d09c24b	0.033632558
143	0xbd84b04a	-0.06478937
144	0xbcadbcdc	-0.02120822
145	0x3cd3951f	0.025827942
146	0x3de56860	0.112015486
147	0xbccef9eb	-0.025265655
148	0x3cd219d5	0.025647083
149	0x8beed45c	-9.199379e-32
150	0xbd7ebf96	-0.06219443
151	0xbd139705	-0.036032695
152	0xbdd3af7c	-0.10336205
153	0x0edb6c41	5.4091913e-30
154	0xbc4517ab	-0.012029569
155	0xbdebafd8	-0.11508149
156	0xbdca37f8	-0.098739564
157	0x3e6a9d72	0.22911623
158	0x3d067e61	0.032835368
159	0x3d154d7b	0.036450844
160	0xbc9b3ffb	-0.018951407
161	0xbd17a71f	-0.037024613
162	0xbd6faf40	-0.05851674
163	0x3c716014	0.0147323795
164	0x0c15d99b	1.1544026e-31
165	0x3d960b89	0.07326419
166	0xbe055c5a	-0.1302351
167	0xbd7e7ade	-0.062128894
168	0xbcd4dc0a	-0.025983829
169	0x3e0afc62	0.13572839
170	0xbdd76970	-0.105181575
171	0x3e18ff2b	0.14941089
172	0x3ec98ba0	0.39364338
173	0xbf18feca	-0.5976378
174	0x3cd28941	0.025700213
175	0xbbdc0f33	-0.006715679
176	0x8bf5339c	-9.444822e-32
177	0xbc475eb2	-0.012168573
178	0x3e858cc3	0.26083955
179	0xbd8d9b5a	-0.069143966
180	0xbe522bba	-0.20524493
181	0xbd15ddae	-0.036588363
182	0xbe2aa72f	-0.16665338
183	0x3e18f1aa	0.14935938
184	0xbd8a1d4a	-0.06743868
185	0xbb75145d	-0.003739617
186	0xbd89f688	-0.06736475
187	0xbd04de63	-0.032438647
188	0xbd39e48b	-0.04538397
189	0x01049e68	2.4358222e-38
190	0xbe3fbe6e	-0.18724987
191	0x03bb0107	1.0991108e-36
192	0xbd0adbd6	-0.03390106
193	0x3cef00d9	0.029175209
194	0x3bdabd03	0.006675364
195	0x3c0276db	0.007962908
196	0xbea68134	-0.3252045
197	0x3e2b252f	0.16713403
198	0xba1de006	-0.0006022457
199	0xbb9bdd38	-0.004756596
200	0x3c9b2e8c	0.018943094
201	0x3da6796b	0.081286274
202	0xbd9f9b80	-0.07793331
203	0x3bbce8f0	0.005765073
204	0xbcb8b7e5	-0.022548625
205	0xbc78c63e	-0.015183983
206	0xbdf92d17	-0.12166803
207	0x3d377701	0.044791225
208	0x3bd559aa	0.006510933
209	0x3e13de32	0.1444023
210	0xbe81c454	-0.253451
211	0x3b02d4c4	0.0019963244
212	0x3d41a0b7	0.04727241
213	0x09a3d37a	3.9439694e-33
214	0x3e0de744	0.13857752
215	0xbd4c6b86	-0.04990723
216	0xbd01c4d0	-0.031681836
217	0x0e3ca3ed	2.3251716e-30
218	0x3d6c8f44	0.057753816
219	0x3b8929f5	0.00418591
220	0x3d25c64b	0.04047231
221	0x3d7aead7	0.061259117
222	0x3c973149	0.018456118
223	0x3d841f04	0.06451228
224	0xbcb6e5bc	-0.022326343
225	0xba907e4a	-0.0011023965
226	0x3d2736d3	0.04082377
227	0x3dba8237	0.09106868
228	0x0b041fee	2.5446296e-32
229	0x3d14f0d9	0.036362503
230	0x3ce53cbc	0.027983062
231	0xbd631c6d	-0.05544703
232	0xbcd8d86b	-0.026470384
233	0xbdefa781	-0.11701871
234	0xbeba7dba	-0.36424047
235	0xbe282617	-0.1642078
236	0x3de5bf40	0.11218119
237	0x3ce5bc5e	0.028043922
238	0x3dc76b9f	0.09737324
239	0xbbbd111f	-0.0057698633
240	0x09044ed3	1.5925985e-33
241	0xbc2094c6	-0.009801095
242	0xbc77252c	-0.015084546
243	0xbde56730	-0.11201322
244	0x3dc67e8b	0.09692105
245	0xbcf42b9a	-0.029805947
246	0xbb7ad8df	-0.0038276238
247	0xbd85b835	-0.06529275
248	0x3d1d879c	0.038459405
249	0x3b3ad215	0.0028506566
250	0x3e4ebc41	0.20189
251	0xbc68050b	-0.014161359
252	0x3d9d2dcb	0.0767475
253	0x8096c150	-1.3844672e-38
254	0xbd8de85a	-0.06929083
255	0x040bdae9	1.643989e-36

layers.1.bias f4 [72]
0	0xbed52212	-0.41627556
1	0x83a201c7	-9.521912e-37
2	0xbf36872b	-0.713
3	0x3ffb942b	1.9654592
4	0xbf8ab9f7	-1.0838002
5	0x88285a4b	-5.06618e-34
6	0xbec3b905	-0.38227096
7	0xbf444784	-0.76671624
8	0xbf2d1e4f	-0.6762437
9	0xbf9c7b1a	-1.2225068
10	0xbe78b69a	-0.24288407
11	0xbf2ba1e9	-0.6704393
12	0x834c0233	-5.9952736e-37
13	0xbf22e41a	-0.63629305
14	0x3da77f4f	0.08178579
15	0x3f0828db	0.5318734
16	0xbf634f6f	-0.8879308
17	0xb90aa9ed	-0.00013224008
18	0xbfd5d8d0	-1.6706791
19	0x3fbdc7cc	1.4826598
20	0xbf569013	-0.8381359
21	0xbf8e60ea	-1.1123326
22	0xbf3390f0	-0.7014303
23	0xbffe4a88	-1.9866495
24	0xa7f4dbe7	-6.7962023e-15
25	0xbe86bcb4	-0.26315844
26	0xbf17dac5	-0.5931819
27	0xbf88d41b	-1.068973
28	0xbe150327	-0.14551984
29	0xbf9cd329	-1.2251941
30	0x80a4c4f0	-1.5131669e-38
31	0x3fad52ab	1.3540853
32	0xbf606ded	-0.87667733
33	0xbf16b94e	-0.588765
34	0x3fc2cf8b	1.5219587
35	0x3f17fdcd	0.59371644
36	0xbfd18932	-1.6369994
37	0x879afdd2	-2.3320527e-34
38	0x8885033a	-8.005405e-34
39	0xb2b76b51	-2.1352806e-08
40	0x3eafec6f	0.34360072
41	0xbe58bee4	-0.21166569
42	0xbb7e85c0	-0.0038837045
43	0xbddf2bf3	-0.108970545
44	0xbf12f92d	-0.5741146
45	0xbe78e5c5	-0.243064
46	0x3fad969a	1.3561585
47	0x3e99f622	0.30070597
48	0x3f7fbaf2	0.9989463
49	0xbff1ba39	-1.8884956
50	0x82839786	-1.933569e-37
51	0xbf1690c7	-0.5881466
52	0x3ffe8012	1.9882834
53	0xbf286082	-0.6577226
54	0x3eded036	0.43518227
55	0x8b83b0b5	-5.0725244e-32
56	0xbec7bd89	-0.3901179
57	0xbf8b4255	-1.0879618
58	0xbeef44c1	-0.46732143
59	0x3f92f597	1.1481198
60	0x3edbb92c	0.42914712
61	0x4018fd7f	2.3904722
62	0x3d57425e	0.052553527
63	0xbf528b3c	-0.82243705
64	0x3f0aa34d	0.5415543
65	0x3fa60305	1.2969671
66	0x00ec1f70	2.1684455e-38
67	0xbf12f53f	-0.57405466
68	0x3f1b60d6	0.60694635
69	0x89bfa01c	-4.6132144e-33
70	0x82548ace	-1.5615135e-37
71	0x3e56398b	0.20920388

layers.2.weight f4 [82, 72]
0	0xbd1db604	-0.03850366
1	0x81e42770	-8.381056e-38
2	0xbc6a4153	-0.014297801
3	0x3d4d6218	0.050142378
4	0xbcd047d9	-0.025424885
5	0x0b2a34d8	3.2780564e-32
6	0x3e085aa4	0.13315827
7	0x3e3d74d5	0.18501599
8	0x3d88d52f	0.066812865
9	0x3d555733	0.052085113
10	0xbe2b7f31	-0.16747738
11	0x3d940bd6	0.0722882
12	0x87294dda	-1.2737025e-34
13	0x3d127b27	0.03576198
14	0x3d10b179	0.0353255
15	0xbe108f7a	-0.14117232
16	0xbcd4d739	-0.025981532
17	0xba9ea0a4	-0.0012102318
18	0x3ca30fdf	0.019905029
19	0xbe775bbf	-0.24156092
20	0x3ccc84c2	0.024965648
21	0xbd4d6e55	-0.05015405
22	0x3a367886	0.00069607084
23	0x3b0b3ca9	0.0021245873
24	0x2f136e57	1.3408773e-10
25	0xbda3acd2	-0.07991947
26	0x3cfd9b2f	0.030957786
27	0x3bfa0e35	0.007631088
28	0x3c3ab7d4	0.011396367
29	0xbcc8f21d	-0.024529511
30	0x822e9fe2	-1.2829385e-37
31	0x3b9ea01c	0.004840864
32	0xbd3490f3	-0.044083547
33	0x3c94286a	0.018085677
34	0x3d1dcf42	0.038527735
35	0x3d3f1145	0.04664733
36	0xbd705f18	-0.05868444
37	0x00f13fb0	2.2155201e-38
38	0x8c0a4992	-1.0653273e-31
39	0x2fe9100a	4.239385e-10
40	0x3d677a90	0.05651337
41	0xbc925440	-0.01786244
42	0x3b8b8327	0.004257578
43	0xbc56dcbe	-0.0131141525
44	0x3ec52a4e	0.38508838
45	0x3bc90338	0.006134417
46	0xbdfaf4a6	-0.12253694
47	0x3b17b0d1	0.0023146162
48	0xbc5f3c73	-0.013625252
49	0xbc8e6940	-0.017384171
50	0x05c68be3	1.8671217e-35
51	0xbd88e86a	-0.066849545
52	0xbdecf194	-0.11569515
53	0x3c177f95	0.0092467265
54	0xbc847400	-0.016168594
55	0x8e74827d	-3.013815e-30
56	0x3c08fe89	0.008361467
57	0x3e5f1e94	0.21789008
58	0xbbfbd421	-0.0076852
59	0xbd36b88d	-0.044609595
60	0xbd9f179c	-0.07768175
61	0xbc70ccda	-0.014697278
62	0xbb99b10b	-0.0046902946
63	0xbd44d128	-0.04805103
64	0xbb59a091	-0.0033207277
65	0x3c3b251b	0.011422421
66	0x012567e8	3.0380263e-38
67	0x3d35325f	0.04423749
68	0x3d7c13ab	0.061542194
69	0x0b208b7d	3.0919818e-32
70	0x881f0203	-4.7849687e-34
71	0xbbc60db7	-0.0060441154
72	0xbd8ac8c6	-0.06776576
73	0x041aa148	1.817667e-36
74	0x3e8b9b19	0.27266768
75	0x3db71ccc	0.089410394
76	0x3dd53096	0.10409658
77	0x8b52c68f	-4.0593908e-32
78	0x3e7abeaa	0.24486795
79	0xbddb1d3a	-0.10698934
80	0x3e3a914d	0.1821949
81	0x3c4435e0	0.011975735
82	0x3e16b105	0.14715965
83	0x3eb8da5b	0.36104092
84	0x86175575	-2.8462727e-35
85	0x3de376f2	0.111066714
86	0x3d6275de	0.05528819
87	0x3deae3bd	0.11469219
88	0x3c11cac9	0.008898445
89	0xba13e4d6	-0.0005641704
90	0xbcc84741	-0.024448039
91	0xbd6c891b	-0.05774794
92	0x3ad4a55f	0.0016223601
93	0x3d85df0d	0.06536684
94	0xbd65b2ac	-0.056078598
95	0xbd0a758f	-0.03380352
96	0xadae204f	-1.9795858e-11
97	0xbe0087d8	-0.1255182
98	0xbd60961b	-0.05483065
99	0x3e038fc4	0.12847811
100	0xbc2630d5	-0.010143478
101	0x3e070aaa	0.13187662
102	0x0295c0b6	2.2004193e-37
103	0xbda0c03a	-0.07849164
104	0x3e3557ef	0.17709325
105	0xbcd89543	-0.026438361
106	0x3d652cc7	0.055950906
107	0xbd8add12	-0.06780447
108	0xbc928e85	-0.017890224
109	0x80fb6fb0	-2.3090775e-38
110	0x82812cfa	-1.8980662e-37
111	0x315b6c30	3.1930192e-09
112	0xbc72f028	-0.0148277655
113	0x3d069d1e	0.032864682
114	0x3b9ae0b9	0.004726496
115	0x3cf0b2b7	0.029382093
116	0x3cc26a4f	0.023732333
117	0x3de91ae3	0.11382081
118	0xbd5c977e	-0.05385541
119	0x3d7595c6	0.05995729
120	0x3d838bba	0.06423135
121	0x3c68d65f	0.014211266
122	0x0563969e	1.0701153e-35
123	0xbd20a515	-0.039219934
124	0x3d9bcdff	0.0760765
125	0xbdaaae29	-0.08334
126	0xbc70d8c4	-0.014700118
127	0x8ddfdabf	-1.3796097e-30
128	0x3dae3300	0.08505821
129	0xbdb0c4ce	-0.086312875
130	0xbcfb4808	-0.030673996
131	0xbd96a531	-0.073557265
132	0x3c617db7	0.013762883
133	0x3dc39094	0.095490605
134	0xbd2b453a	-0.041814066
135	0xbc66d2ab	-0.014088313
136	0xbd99d87f	-0.075119965
137	0xbc306051	-0.010765151
138	0x00a12420	1.4798474e-38
139	0x3cb1ae66	0.021689605
140	0xbd8c49bb	-0.068500005
141	0x0a8d939a	1.3633328e-32
142	0x8801ff0a	-3.9119322e-34
143	0xbd5093ad	-0.050922085
144	0xbe703c99	-0.23460616
145	0x845842f0	-2.5421414e-36
146	0xbd421265	-0.047380824
147	0x3d3cd471	0.046101037
148	0xbe252f7e	-0.16131398
149	0x8c092d21	-1.0567677e-31
150	0x3d617a7f	0.055048462
151	0xbc9773af	-0.01848778
152	0xbbd60147	-0.006530914
153	0xbba6b8b0	-0.0050879344
154	0xbc776b92	-0.01510133
155	0x3d86e34b	0.065863214
156	0x873fc086	-1.442582e-34
157	0x3dbcaaa3	0.09212234
158	0xbc4710f3	-0.012150037
159	0x3cf029d9	0.02931683
160	0x3e807dcd	0.25095978
161	0xb8ebc403	-0.00011242183
162	0x3d51eeb9	0.051253054
163	0x3ca09ff4	0.019607522
164	0xbcd3e8ba	-0.025867809
165	0x3d4b7fe4	0.049682513
166	0xbe44151a	-0.19148675
167	0xbe0149a8	-0.12625754
168	0x2ea1d1d9	7.358709e-11
169	0x3ce5585e	0.027996238
170	0x3cfa0a2e	0.030522432
171	0xbdf1570f	-0.11784183
172	0xbd16c580	-0.036809444
173	0xbd9ebd06	-0.07750897
174	0x028d591c	2.0769234e-37
175	0x3b4fa45e	0.0031683664
176	0xbd607f17	-0.054808702
177	0xbea4659b	-0.3210877
178	0x3d33b9fc	0.04387854
179	0xbd92df4e	-0.07171498
180	0xbd702689	-0.0586305
181	0x01090fd8	2.5174293e-38
182	0x0b163c16	2.8934153e-32
183	0x2d9130ee	1.650632e-11
184	0xbdbfceee	-0.093656406
185	0x3d78f809	0.06078342
186	0xbbb4233f	-0.0054973657
187	0x3c16d5d5	0.009206255
188	0x3db6d221	0.08926798
189	0xbc919a8c	-0.017773889
190	0xbdc1741f	-0.094459765
191	0xbd71fa98	-0.059076875
192	0x3d3d7c78	0.04626128
193	0x3cb22268	0.021744922
194	0x8518de4a	-7.187834e-36
195	0x3d48207c	0.048859105
196	0x3e3fdb99	0.18736114
197	0x3cd51cc1	0.026014687
198	0xbe459cc0	-0.19298077
199	0x0e7634e7	3.0347313e-30
200	0x3e2a575e	0.1663489
201	0x3a81fd90	0.0009917486
202	0xbc16080a	-0.00915719
203	0xbe274f09	-0.16338743
204	0x3e5647aa	0.20925775
205	0x3f02aa28	0.5104089
206	0x3e78ca53	0.2429593
207	0x3d832a5a	0.06404562
208	0x3e706598	0.23476255
209	0x3e0b9b11	0.13633372
210	0x01170fd8	2.7745687e-38
211	0x3e06100a	0.13092056
212	0xbd4beee6	-0.04978838
213	0x09b41dd0	4.336146e-33
214	0x08988563	9.179526e-34
215	0x3d4a67aa	0.049415268
216	0xbdfee0ff	-0.12445258
217	0x035f14b7	6.555759e-37
218	0xbb545d03	-0.0032404072
219	0xbd3d7531	-0.04625434
220	0x3e1f679e	0.1556687
221	0x0a41c24a	9.329154e-33
222	0xbc602fba	-0.013683254
223	0x3c058b36	0.008150866
224	0xbb9e04eb	-0.0048223636
225	0xbd62eb96	-0.055400454
226	0xbcc70433	-0.024293995
227	0xbce0181f	-0.027355252
228	0x05b0c647	1.6623796e-35
229	0xbe0a08a4	-0.13479859
230	0xbd09ac68	-0.033611685
231	0x3e084650	0.13308072
232	0x3f594a87	0.84879345
233	0xbab0278f	-0.0013439524
234	0xbefb6a51	-0.4910455
235	0xbdcfeb7d	-0.10152338
236	0x391f1f5b	0.00015175102
237	0x3cd2020d	0.025635744
238	0x3eafc40c	0.3432926
239	0x3caf8201	0.021424295
240	0x2e2756b5	3.8048415e-11
241	0x3cdc51bd	0.026894445
242	0xbb32be74	-0.0027274163
243	0xbcb78902	-0.022404198
244	0x3da5fe0d	0.08105097
245	0x3cfcb8e8	0.030849889
246	0x01113758	2.6672e-38
247	0xbd20eba1	-0.039287213
248	0xb9818a48	-0.00024707825
249	0xbc39c32d	-0.011338037
250	0x3e362ac3	0.1778975
251	0xbc33b6a4	-0.010968838
252	0xbe0f76da	-0.14010182
253	0x8126e9b8	-3.065707e-38
254	0x03008c24	3.7776693e-37
255	0x296c17a7	5.2423042e-14

layers.2.bias f4 [82]
0	0xbf9370d5	-1.1518809
1	0xbf333702	-0.7000581
2	0x3ce54636	0.02798758
3	0x3f45783d	0.77136594
4	0x3f86e02b	1.0537161
5	0xbeda36d3	-0.42619953
6	0xbf74079e	-0.9532412
7	0xbfdde196	-1.7334468
8	0xbf874da7	-1.0570573
9	0x825e07e2	-1.6312246e-37
10	0xbf133c11	-0.5751353
11	0x902d003b	-3.4118412e-29
12	0xbf7572bd	-0.958782
13	0xbf178a15	-0.5919507
14	0x3ce46c7b	0.027883759
15	0xbf8a974f	-1.0827426
16	0x3ea5a6da	0.3235386
17	0x8395b3aa	-8.798682e-37
18	0x3fd7cb45	1.6858908
19	0x8646915f	-3.7346463e-35
20	0x3fbd4d8e	1.4789293
21	0x3d9868f0	0.0744189
22	0x80c5a7f0	-1.8151837e-38
23	0x849adc7c	-3.640771e-36
24	0xbf46c2d5	-0.7764104
25	0xbf9de041	-1.2334062
26	0x87c04427	-2.8929006e-34
27	0x3fb317e2	1.3991663
28	0xbec846bc	-0.39116466
29	0xbfd8527f	-1.6900176
30	0xbd89c23f	-0.067265026
31	0x3ff48b09	1.910493
32	0x3f02bac0	0.5106621
33	0xbf9c98c2	-1.2234118
34	0x3d8f8111	0.07007039
35	0xbf44025c	-0.765661
36	0xbf87389f	-1.0564154
37	0xbf30b4ac	-0.69025683
38	0xbeb8c5db	-0.36088452
39	0x3d64b595	0.055837233
40	0xbf42b4bf	-0.76057047
41	0x00307570	4.450232e-39
42	0x3e9b52aa	0.30336505
43	0x3f82be19	1.0214263
44	0x3efddebe	0.49584
45	0x3ef478fd	0.47748557
46	0xbf57ab2f	-0.8424558
47	0x3e6d206f	0.23156904
48	0xbd95efcc	-0.07321128
49	0xbfa828f8	-1.3137503
50	0xbf2aa1b9	-0.6665302
51	0x3fa71281	1.3052522
52	0xbf684f92	-0.90746415
53	0x3e3674fd	0.17818065
54	0x3eb2807f	0.3486366
55	0xbf3d47a6	-0.7393745
56	0xbfd9fa74	-1.7029557
57	0xbfa08ff7	-1.2543935
58	0xbf2bce93	-0.6711208
59	0xbd1805f4	-0.037115052
60	0x3ec8c23c	0.3921069
61	0x3f24e50c	0.64412
62	0xbfa33b8e	-1.275255
63	0x87f03f19	-3.6148272e-34
64	0xbf79d1dc	-0.97585845
65	0x866813a6	-4.3648786e-35
66	0x3f02c40d	0.510804
67	0xbf3d19df	-0.738676
68	0x91832d3b	-2.069603e-28
69	0x3ee8061b	0.45317158
70	0x3ffb3fe5	1.9628874
71	0x8242fb2a	-1.432495e-37
72	0xbfa9025d	-1.3203846
73	0xbf192372	-0.5981971
74	0x3d999ead	0.07500968
75	0xbe1a282b	-0.15054385
76	0xbf2e3d6e	-0.68062484
77	0xbf630356	-0.88676965
78	0xab254be4	-5.8725095e-13
79	0x3e163348	0.14668
80	0xbfa89615	-1.3170801
81	0xbfbe638e	-1.4874132

layers.3.weight f4 [92, 82]
0	0x3e0e9eb3	0.13927726
1	0x3dc46101	0.095888145
2	0x3de12aff	0.10994529
3	0xbe67767f	-0.22603796
4	0x3e0604e3	0.13087802
5	0x3d970f76	0.07375996
6	0x3d91ec81	0.07125188
7	0x3c0b9d45	0.008521383
8	0x3ba25330	0.0049537644
9	0x01493520	3.6955985e-38
10	0x3e260c17	0.1621555
11	0x0df31277	1.49804765e-30
12	0x3e143a33	0.14475326
13	0x3cc8ca62	0.024510566
14	0x3e0432dd	0.12910028
15	0xbc0f8a1e	-0.008760957
16	0x3e30aee7	0.1725422
17	0x85200b0b	-7.525192e-36
18	0x3d9f2731	0.07771147
19	0x0b6475c3	4.3999797e-32
20	0x3d701222	0.058611043
21	0xbdbfcbe2	-0.093650594
22	0x021c04ba	1.1462426e-37
23	0x87e8d90e	-3.5035054e-34
24	0x3d132424	0.03592314
25	0x3d15d679	0.03658149
26	0x097ccba2	3.0429144e-33
27	0xbe86bdbe	-0.26316637
28	0xbc887cbb	-0.016661039
29	0xbbc30700	-0.005951762
30	0xbdc282dc	-0.09497616
31	0xbd20ee57	-0.0392898
32	0x3d63131b	0.055438142
33	0x3e0b88cd	0.13626404
34	0x3d89ff17	0.06738108
35	0xbd8c4db0	-0.06850755
36	0x3da7e83e	0.081985936
37	0xbcda0d77	-0.026617749
38	0xbcbdb2eb	-0.023156604
39	0x3d0690eb	0.03285305
40	0x3d41d7b9	0.04732487
41	0x0646c4d4	3.7384268e-35
42	0x3d5a0864	0.05323066
43	0xbe0d4e0f	-0.13799308
44	0x3ccf7d07	0.025328172
45	0xbd591df3	-0.053007077
46	0xbd745824	-0.05965437
47	0x3e892639	0.26786974
48	0x3d1fdfe1	0.039031867
49	0x3dd81c02	0.10552217
50	0xba6fc744	-0.00091468194
51	0xbd81049d	-0.06299708
52	0x3c4ed6e8	0.01262448
53	0xbceb3beb	-0.028715095
54	0xbb18b3f9	-0.0023300631
55	0x3e82d9cd	0.25556794
56	0xbe145317	-0.14484821
57	0x3d1b3d20	0.03790009
58	0xbc349126	-0.011020934
59	0x3d5d9e4a	0.054106034
60	0x3c08b4e0	0.008343905
61	0x3d0919f1	0.033472005
62	0xbd97b485	-0.07407478
63	0x0a111c02	6.986764e-33
64	0x3e773b9c	0.24143833
65	0x05a40c80	1.5427078e-35
66	0x3da548b6	0.08070509
67	0xbb95af6a	-0.00456803
68	0x95454022	-3.9834425e-26
69	0x3e02ee45	0.12786205
70	0xbe004d29	-0.12529434
71	0x80aad800	-1.568952e-38
72	0xbd8d1ad3	-0.06889882
73	0x3e4af574	0.19820195
74	0xbce86cbb	-0.02837216
75	0xbdc1ef68	-0.09469491
76	0x3e9467e1	0.28985503
77	0xbdb490fc	-0.08816716
78	0x26724df4	8.406626e-16
79	0xbdb0f291	-0.08640016
80	0xbc25b3c6	-0.010113662
81	0x3d80e9d8	0.06294602
82	0x3dc26141	0.09491206
83	0xbb8767e7	-0.004132259
84	0x3c0f2487	0.008736736
85	0x3b061e7b	0.0020464945
86	0xbddc094b	-0.1074396
87	0xbb517fd9	-0.0031967072
88	0x3cce0433	0.025148487
89	0x3e18b155	0.14911397
90	0x3dc52b39	0.09627385
91	0x80ed6b70	-2.1803554e-38
92	0x3d9fd0e6	0.07803516
93	0x0e64bad6	2.8193128e-30
94	0x3d2e43be	0.042545073
95	0xbcba7b32	-0.022763822
96	0xbc63fab9	-0.013914757
97	0x3dcecd8b	0.10097798
98	0x3cc4cf0c	0.024024509
99	0x08c13e60	1.1630429e-33
100	0xbdb711bb	-0.08938929
101	0x0b3c66d7	3.628485e-32
102	0xbe2482f7	-0.16065584
103	0xbc736932	-0.0148566235
104	0x81db8900	-8.064448e-38
105	0x07a4ad7f	2.477795e-34
106	0x3cbda527	0.02315004
107	0x3d01da9d	0.031702626
108	0x8b109fcf	-2.7853618e-32
109	0xbe063f7d	-0.13110156
110	0xbd733a10	-0.059381545
111	0x3ba90f8f	0.0051593254
112	0xbd112894	-0.03543909
113	0xbe296091	-0.16540743
114	0xbcb5002a	-0.022094805
115	0x3b408d7e	0.002938121
116	0xbc9464e9	-0.018114524
117	0xbce335b3	-0.027735567
118	0xbd1291f5	-0.035783727
119	0xbbec8168	-0.007217575
120	0xbcc3bd71	-0.023894044
121	0xbc0d7772	-0.008634435
122	0xbe10d0db	-0.14142172
123	0x074ae50b	1.5264101e-34
124	0x3cc4c289	0.024018543
125	0xbb2df1ef	-0.0026541909
126	0x39057c6a	0.00012730216
127	0xbd9e726d	-0.07736669
128	0x3e519fe3	0.20471148
129	0xbcaef5ba	-0.021357406
130	0x3b8c309c	0.0042782556
131	0xbdb70747	-0.08936935
132	0x3e0f51fe	0.13996121
133	0xbdd35d57	-0.103205375
134	0x3e56a77b	0.20962326
135	0xbdc91b0e	-0.098196134
136	0x3b91d23d	0.004450111
137	0x3d7391c2	0.059465177
138	0x3e621fcb	0.2208244
139	0xbc735c79	-0.01485359
140	0x3d41bf05	0.04730131
141	0xbcaf9101	-0.021431448
142	0x3cc80cfe	0.024420258
143	0x3d5c96cc	0.05385475
144	0x3d9033cb	0.07041129
145	0x09507338	2.5091265e-33
146	0x3d730e63	0.059339892
147	0x83bbdb09	-1.104116e-36
148	0x3d86d74e	0.06584035
149	0x3d36c287	0.04461911
150	0x124ab01b	6.395703e-28
151	0xbc85caeb	-0.01633211
152	0xbeb7b3a3	-0.3587924
153	0x8039ea30	-5.318634e-39
154	0x3e1bbb19	0.15208091
155	0xbd473e0f	-0.048643168
156	0xbcf3b342	-0.029748563
157	0x3bdc07ab	0.0067147813
158	0x3c6d259b	0.014474298
159	0x3e21d3c5	0.1580344
160	0x275ad6d7	3.0370042e-15
161	0x3b3c271e	0.002870984
162	0x3c33e00e	0.010978712
163	0x3d9b6f7f	0.075896256
164	0x8531b778	-8.356198e-36
165	0x854b40fc	-9.55695e-36
166	0x85e7071f	-2.1725751e-35
167	0x85439089	-9.195403e-36
168	0x860646ba	-2.525456e-35
169	0x839123ce	-8.530554e-37
170	0x8550a2c4	-9.810008e-36
171	0x8597da54	-1.4280173e-35
172	0x85e6e4a4	-2.1713085e-35
173	0x8046a470	-6.487474e-39
174	0x858c057c	-1.3167551e-35
175	0x00820090	1.1938816e-38
176	0x859ebd9b	-1.4927899e-35
177	0x8561d281	-1.06181126e-35
178	0x859c177d	-1.4678798e-35
179	0x854fde4f	-9.773925e-36
180	0x83899e7f	-8.088525e-37
181	0x002fb550	4.381311e-39
182	0x85cc7d19	-1.9230021e-35
183	0x00baadd0	1.7143754e-38
184	0x8589a3f9	-1.2943652e-35
185	0x8551a3f2	-9.857245e-36
186	0x00260930	3.493045e-39
187	0x80148d50	-1.887403e-39
188	0x85943d75	-1.3940429e-35
189	0x85706831	-1.1303883e-35
190	0x00d29f50	1.9342605e-38
191	0x85c4d421	-1.8509675e-35
192	0x8591ff37	-1.3729486e-35
193	0x85a1f771	-1.5231263e-35
194	0x84fd25c0	-5.9514682e-36
195	0x854af130	-9.5422935e-36
196	0x03af1618	1.0290648e-36
197	0x85c9af82	-1.896642e-35
198	0x8580d2f3	-1.2114553e-35
199	0x8545622c	-9.280927e-36
200	0x8565ac24	-1.07991455e-35
201	0x8512245a	-6.871564e-36
202	0x8645a594	-3.717323e-35
203	0x8591a2b0	-1.3695496e-35
204	0x85974973	-1.4226953e-35
205	0x80584510	-8.106299e-39
206	0x8472e416	-2.8551695e-36
207	0x85059bf7	-6.282276e-36
208	0x85b3e1e4	-1.6916058e-35
209	0x85fbdcb4	-2.3685e-35
210	0x85501e1f	-9.7856454e-36
211	0x85d8c25a	-2.0383936e-35
212	0x863b9066	-3.5276878e-35
213	0x85236259	-7.682287e-36
214	0x85a02f9c	-1.5063817e-35
215	0x8567bd45	-1.0896331e-35
216	0x049dc913	3.709518e-36
217	0x839dc942	-9.273837e-37
218	0x85c7368b	-1.8733906e-35
219	0x84c8c214	-4.7198007e-36
220	0x8586bb25	-1.2670045e-35
221	0x85ddb2b8	-2.0848391e-35
222	0x039806ce	8.935319e-37
223	0x859a8b31	-1.4533221e-35
224	0x8567bf57	-1.08967114e-35
225	0x85b3d475	-1.6911123e-35
226	0x84a6f4e6	-3.9251316e-36
227	0x80dcfcd0	-2.0294501e-38
228	0x85ac74fc	-1.6217776e-35
229	0x811181b8	-2.6725363e-38
230	0x84e97114	-5.4881883e-36
231	0x84bd7938	-4.454501e-36
232	0x80df8730	-2.0527812e-38
233	0x85bbaedd	-1.764963e-35
234	0x861cfe5d	-2.9527216e-35
235	0x812923e8	-3.106616e-38
236	0x03673fb2	6.7957917e-37
237	0x851964a0	-7.212507e-36
238	0x86192415	-2.880261e-35
239	0x85337786	-8.4384925e-36
240	0x83b37d66	-1.05494645e-36
241	0x853fb52c	-9.014053e-36
242	0x00239870	3.268927e-39
243	0x858f7b0c	-1.3492856e-35
244	0x854c88af	-9.617139e-36
245	0x8440e61b	-2.267515e-36
246	0x3db5972d	0.08866725
247	0xbc2de67f	-0.010614037
248	0x3d49d3bc	0.04927419
249	0x3bab8a52	0.005234995
250	0x3d7cda80	0.061731815
251	0xbcaadfef	-0.020858733
252	0x3e3a74d3	0.18208627
253	0x3e25ba19	0.16184272
254	0x3d559b99	0.052150343
255	0x00e142d0	2.0686954e-38

layers.3.bias f4 [92]
0	0xbe804b76	-0.25057572
1	0xbf8a6fca	-1.0815365
2	0x84816476	-3.0420013e-36
3	0xbf3c5372	-0.7356483
4	0x3ee04148	0.43799806
5	0xb9e0e403	-0.0004289449
6	0xbe76f408	-0.24116528
7	0xbb70d2be	-0.0036746706
8	0xbf302bad	-0.68816644
9	0x80c32b70	-1.7923504e-38
10	0xbf7667eb	-0.96252316
11	0xbf8336a2	-1.0251048
12	0xbf87681b	-1.0578645
13	0xbfa09cfe	-1.254791
14	0x3e5dc0ac	0.2165553
15	0xbfa5ffcf	-1.2968692
16	0x3d8436a0	0.064557314
17	0xbf4b8cd3	-0.79511756
18	0xbe9740be	-0.29541582
19	0xbb3dc28f	-0.0028955077
20	0xbf42ec8a	-0.7614218
21	0xbf89fa54	-1.0779519
22	0xbfb16bcf	-1.3861026
23	0x8fb91cb0	-1.8253458e-29
24	0x94a5a51b	-1.6725865e-26
25	0x3f336fc3	0.7009241
26	0x3ea2e6e5	0.31816784
27	0xbf9f963a	-1.246772
28	0xbf8588e2	-1.0432398
29	0xbf01f6aa	-0.50767004
30	0xbc800ec7	-0.015632046
31	0xbb84e1a7	-0.00405522
32	0x3f302908	0.6881261
33	0x890a15ca	-1.6621391e-33
34	0xbf60a0c1	-0.8774529
35	0xbee585f9	-0.44828776
36	0x3e3ed9f2	0.18637827
37	0xbf072b85	-0.5280078
38	0x9b2fbf32	-1.4537439e-22
39	0xbf1a1d7a	-0.6020123
40	0x8a34f931	-8.7135524e-33
41	0xbef0710d	-0.4696125
42	0x3c9ef447	0.01940359
43	0xbf901381	-1.1255952
44	0x93a93e90	-4.272329e-27
45	0xbfb9d558	-1.4518232
46	0x3fa804fe	1.3126523
47	0xbfc64750	-1.5490513
48	0xbf148da2	-0.58028615
49	0xbe4919d3	-0.19638757
50	0xbe849752	-0.25896698
51	0xbf416837	-0.75549644
52	0x3f31b717	0.6942
53	0xbf02521e	-0.5090655
54	0xbfbdf597	-1.4840573
55	0xbf3d4c83	-0.7394487
56	0xbf9e7afa	-1.238128
57	0xbfb7b003	-1.435059
58	0xbefdf718	-0.4960258
59	0x3f1e4f31	0.61839586
60	0x3ebc476f	0.3677325
61	0x89c290f8	-4.684013e-33
62	0x3dd09850	0.10185301
63	0xbe5d46df	-0.21609066
64	0xbf3c255e	-0.7349452
65	0xbf70374f	-0.93834394
66	0xbf8037de	-1.0017049
67	0x8a02aa3f	-6.291292e-33
68	0x3f947a07	1.159974
69	0xbf4755be	-0.7786521
70	0x8a2f1067	-8.4290284e-33
71	0x3f4ff0bb	0.812267
72	0x8c9c8474	-2.4115323e-31
73	0xbf880ae2	-1.0628321
74	0xbf73dc1a	-0.95257723
75	0x871c18d0	-1.1743427e-34
76	0xbf827747	-1.019265
77	0xbf843b62	-1.0330622
78	0xbf2d92d6	-0.6780218
79	0x3e815e51	0.2526727
80	0x3ddfd0e7	0.10928517
81	0x3fb2e6e9	1.3976718
82	0xbf610cbc	-0.87910056
83	0x3e38b50a	0.18037811
84	0xbf537cbb	-0.826122
85	0x835d749d	-6.507993e-37
86	0xbeadfe65	-0.3398315
87	0x3f2034cf	0.6258058
88	0x3ebb2a9e	0.36555952
89	0xbec00ed3	-0.3751131
90	0xbf44a483	-0.76813525
91	0xbf075b37	-0.5287356

layers.4.weight f4 [102, 92]
0	0x3cc3b0da	0.02388804
1	0x3e6bb602	0.23018649
2	0x860665d6	-2.5277416e-35
3	0xbd5f0a19	-0.05445299
4	0xbce3c473	-0.027803635
5	0xbde48181	-0.111575134
6	0xbdc57d33	-0.096430205
7	0xbad6570e	-0.0016352849
8	0xbd275fa4	-0.040862694
9	0x04c5ec2f	4.6531378e-36
10	0x3dd16c69	0.10225756
11	0x3da36e32	0.079800025
12	0xbbd844ba	-0.0065999897
13	0xbe1f3c1e	-0.15550277
14	0x3c24bf4b	0.010055373
15	0xbe47d3aa	-0.19514337
16	0x3e16cc39	0.14726342
17	0x3d4b18db	0.04958425
18	0x3bd110cb	0.0063801757
19	0xbacf1073	-0.0015797749
20	0x3db7d9eb	0.089771114
21	0x3c02ad2a	0.007975856
22	0x3e63afe4	0.22235066
23	0x9137bee1	-1.4494974e-28
24	0x9c4e3cd4	-6.82383e-22
25	0xbdc05e6b	-0.09393009
26	0x3d3d60bc	0.04623483
27	0x3ea19dc3	0.31565675
28	0xbe3a6d21	-0.18205692
29	0xbb161cb8	-0.0022905301
30	0x3e1567d3	0.14590387
31	0x3b7430d6	0.0037260554
32	0xbd2d7a4d	-0.042352963
33	0x84d70865	-5.0553966e-36
34	0x3e1f1643	0.15535836
35	0x3e32d0d4	0.17462474
36	0xbdce21b5	-0.10065023
37	0xbde3fa52	-0.11131729
38	0xa0351734	-1.5338974e-19
39	0x3d6e6ac9	0.058207307
40	0x1032e685	3.5281896e-29
41	0x3c134a66	0.008989906
42	0xbbed3e94	-0.007240126
43	0xbd012e22	-0.031538136
44	0x960aff09	-1.1228026e-25
45	0x3e13b02c	0.14422673
46	0xbe842719	-0.2581108
47	0xbdb34124	-0.08752659
48	0x3e311f44	0.17297083
49	0x3d995203	0.074863456
50	0x3c4242f5	0.011856784
51	0x3e8b38c2	0.2719174
52	0x3bd3b254	0.0064604674
53	0xbd405c8f	-0.04696327
54	0xbe469931	-0.19394375
55	0xbd6b3a89	-0.05742887
56	0x3cffc441	0.03122151
57	0xbc580ce2	-0.013186665
58	0x3d4ebcb6	0.050472938
59	0xbe366d5e	-0.17815158
60	0xbd8e94dc	-0.069619864
61	0x84c5154d	-4.633404e-36
62	0xbdc4928b	-0.09598263
63	0xbcfe35f1	-0.03103158
64	0x3c3ad84c	0.011404108
65	0x3d6e0f7d	0.05812024
66	0x3da7f3e2	0.08200814
67	0x822b4332	-1.258238e-37
68	0xbd96a236	-0.07355158
69	0xbd2d848f	-0.042362746
70	0x0322cc80	4.7842276e-37
71	0x3cb45597	0.022013469
72	0x0c9b1d2a	2.3899084e-31
73	0x3eda055b	0.4258221
74	0xbc80ad7d	-0.015707726
75	0x895d2eb6	-2.662387e-33
76	0x3d76d191	0.06025845
77	0x3ec49285	0.38393036
78	0x3d579a64	0.052637473
79	0x3c58dd78	0.013236396
80	0x3c82f8c0	0.015987754
81	0xbd060fe6	-0.032730006
82	0xbc839902	-0.01606417
83	0x3d867b6c	0.065665096
84	0xbb38c703	-0.0028194792
85	0x80c0f9f0	-1.7722076e-38
86	0x3d508d60	0.050916076
87	0x3daa0b1c	0.083029
88	0xbdaed7fb	-0.08537289
89	0x3a0f5fc8	0.00054692896
90	0x3bd97ba4	0.0066370536
91	0x3ca4041c	0.02002149
92	0xbc92e47a	-0.017931212
93	0xbcbadf8f	-0.02281168
94	0x0654e858	4.0043468e-35
95	0x3d05f301	0.03270245
96	0x3dc265d4	0.094920784
97	0xbe3246cc	-0.1740982
98	0xbc0954cc	-0.008382034
99	0xbb437f23	-0.0029830418
100	0x3d8d88f1	0.06910885
101	0x85861221	-1.2607959e-35
102	0x3c71ba50	0.014753893
103	0x3e546f25	0.20745523
104	0xbcd4d13e	-0.02597868
105	0xbd72cf9c	-0.059280023
106	0x3c36971b	0.011144425
107	0x3ca0a4b5	0.019609788
108	0x3e32f0e8	0.17474711
109	0x3da95da9	0.082698174
110	0xbcbd7e6a	-0.023131568
111	0xba583403	-0.00082474964
112	0x3d96c7cb	0.07362326
113	0x3c27c108	0.010238893
114	0xbe986606	-0.29765338
115	0x926308f6	-7.1639615e-28
116	0x9c8e7192	-9.426129e-22
117	0xbd2287fd	-0.03968047
118	0x3db9a6bd	0.09065006
119	0xbec23bb0	-0.37936163
120	0xbceb4922	-0.028721396
121	0x3c7bb2a8	0.015362419
122	0x3e23f98d	0.16013165
123	0x3b85a863	0.004078911
124	0xbd9d803c	-0.076904744
125	0x857d91fd	-1.1922817e-35
126	0x3d2e065d	0.042486537
127	0xbdb6d5d7	-0.089275055
128	0x3cfb334b	0.030664107
129	0xbd50faec	-0.051020548
130	0xa078a7cd	-2.1061938e-19
131	0x3ea76ea7	0.3270161
132	0x10854f32	5.258127e-29
133	0x3d9459bc	0.07243678
134	0xbe1e2a6f	-0.15445875
135	0xbdc474ca	-0.09592588
136	0x160b0612	1.1230246e-25
137	0x3e41a381	0.18910028
138	0xbe0d5d74	-0.13805181
139	0x3f023612	0.50863755
140	0x3c88572c	0.01664313
141	0x3da42150	0.08014166
142	0x3dc35b80	0.095389366
143	0x3e8abd98	0.27097774
144	0x3ab878f8	0.0014074137
145	0x3ddf4822	0.1090243
146	0x3e2d17e4	0.16903645
147	0xbd85f9bf	-0.06541776
148	0x3dc25728	0.0948928
149	0xbab2cccf	-0.001364136
150	0xbd7098d8	-0.058739513
151	0xbe436f8c	-0.1908552
152	0xbdcb1da0	-0.0991776
153	0x840e4046	-1.6721533e-36
154	0x3e5f8bab	0.21830623
155	0x3d6a0f03	0.057143223
156	0x3e013bbe	0.12620446
157	0x3d552eb0	0.052046478
158	0xbde778ca	-0.113023356
159	0x03fdffc2	1.4928723e-36
160	0xbd1f6501	-0.038914684
161	0x3e0a5d4a	0.1351215
162	0x02bacac9	2.7446637e-37
163	0xbe2c865a	-0.16848126
164	0x0b1f84bf	3.0722153e-32
165	0x3db0d5a4	0.08634499
166	0xbc371b33	-0.011175918
167	0x89460393	-2.3835064e-33
168	0x3e0681dd	0.13135476
169	0x3e24c596	0.16090998
170	0xbeb1217d	-0.34595862
171	0xbe3f6a19	-0.18692817
172	0xbc6a3eb5	-0.014297177
173	0xbe087ea5	-0.13329561
174	0x3d64a33b	0.05581973
175	0x3cf84514	0.030306377
176	0xbca62e9a	-0.020285893
177	0x80ad2070	-1.5899177e-38
178	0x3908d128	0.00013047887
179	0x3de55eca	0.1119972
180	0xbe0c63c2	-0.1370993
181	0x3babf624	0.005247848
182	0x3ce2e38b	0.027696392
183	0x3e6de75f	0.23232792
184	0xbcd001ff	-0.025391577
185	0xbdd1e8e3	-0.10249498
186	0x08138c17	4.440088e-34
187	0x3c92cdb3	0.01792035
188	0xbcbdf0bd	-0.023186082
189	0x3c403ad7	0.0117327785
190	0xbd293310	-0.041308463
191	0x3b04e3f6	0.0020277477
192	0xbe23926d	-0.15973826
193	0x049d1869	3.693294e-36
194	0xbbd46a17	-0.0064823735
195	0x3e0b8060	0.1362319
196	0xbc6d4e9e	-0.014484076
197	0xbce49055	-0.027900854
198	0x3ba5f27a	0.005064306
199	0x3ea68771	0.3252521
200	0xbd48d8d0	-0.049034894
201	0x3db662c3	0.08905556
202	0xbc36f8b6	-0.011167696
203	0x3b8f618d	0.0043756426
204	0x3c3f24b3	0.011666465
205	0x3cf2513d	0.029579753
206	0x3df49994	0.11943355
207	0x92edf280	-1.5016584e-27
208	0x9c352625	-5.9937177e-22
209	0xbcddcc79	-0.02707504
210	0xbc2ded31	-0.010615633
211	0x3d9d22e8	0.076726735
212	0x3e1b6a14	0.15177184
213	0x3a2a5b5c	0.0006498599
214	0x3d9ea0ae	0.07745491
215	0xbb8eccec	-0.0043579247
216	0x3c238621	0.009980709
217	0x04d9af63	5.1177522e-36
218	0xbd2a9b15	-0.041651804
219	0x3e073da9	0.13207115
220	0xbd1b7e63	-0.03796233
221	0x3b910fec	0.004426947
222	0xa0cc6e1a	-3.4631803e-19
223	0xbbe3b05a	-0.006948513
224	0x114393e8	1.5428365e-28
225	0x3c9bca14	0.019017257
226	0xbd203eb0	-0.039122283
227	0x3dd99c74	0.10625544
228	0x156e3b44	4.811047e-26
229	0xbbb28486	-0.005447927
230	0xbda4eff2	-0.080535784
231	0x3e0d9471	0.13826157
232	0xbc3f7c44	-0.011687342
233	0x3a50b4a3	0.0007961487
234	0x3bb04212	0.00537897
235	0xbcea95c8	-0.028635874
236	0xbc546b39	-0.012965017
237	0x3d9fce4d	0.078030206
238	0xbdcda106	-0.100404784
239	0x3c9759a0	0.018475354
240	0xbd21ce15	-0.039503176
241	0xbcef8d87	-0.02924229
242	0x3d1128dd	0.03543936
243	0xbd5eb7a0	-0.054374337
244	0x3dae2e14	0.085048825
245	0x05b5f908	1.7112638e-35
246	0xbc8d8d77	-0.01727937
247	0x3d801702	0.062543884
248	0x3c77fd72	0.01513611
249	0x3d1938cc	0.03740768
250	0xbc9d2ab5	-0.019185403
251	0x055b1121	1.03004766e-35
252	0xbe23e118	-0.16003835
253	0xbd0cecb8	-0.03440544
254	0x84895370	-3.228517e-36
255	0xbd7c6f38	-0.061629504

layers.4.bias f4 [102]
0	0xbf4e2133	-0.8051941
1	0xbf403a3a	-0.75088847
2	0xbf6dff12	-0.9296733
3	0x913b208f	-1.4761732e-28
4	0xbdb92638	-0.09040493
5	0xb9308e16	-0.00016837599
6	0x011ef4b8	2.9195594e-38
7	0xbe8d551a	-0.2760399
8	0xbc74fd52	-0.014952974
9	0xbfc0de12	-1.506777
10	0xbd99cdd6	-0.07509963
11	0xbeb457f2	-0.35223347
12	0x3cd51544	0.026011117
13	0xbd3e6e4f	-0.046491917
14	0xbe245d4d	-0.16051216
15	0xbf85b919	-1.0447112
16	0xbed44c62	-0.41464525
17	0xbe918d7e	-0.28428262
18	0xbfc6ea66	-1.5540283
19	0xbf3347ed	-0.70031625
20	0xbee6c3c0	-0.4507122
21	0xbda06cbf	-0.07833242
22	0xbe5d69ee	-0.2162244
23	0xbf94bcc2	-1.1620104
24	0x81716540	-4.4337352e-38
25	0xbd7e1cf1	-0.06203932
26	0x3d9ae8e8	0.075639546
27	0x848d5233	-3.322443e-36
28	0xbdca2914	-0.09871116
29	0xbe913b43	-0.28365526
30	0xbf81bae1	-1.0135156
31	0xb2d93b07	-2.5288967e-08
32	0xbe15e04e	-0.14636347
33	0xbe0f15bc	-0.13973135
34	0xa8066694	-7.460737e-15
35	0x906d1b74	-4.6761158e-29
36	0xbf1de1c8	-0.6167264
37	0x80bbbf70	-1.7241913e-38
38	0xbfcaab0b	-1.5833448
39	0xbf899642	-1.074898
40	0x3f14881b	0.5802018
41	0xbd16dedc	-0.03683363
42	0x3db90adf	0.090352766
43	0xbd4adca0	-0.04952681
44	0x3d8b64fe	0.06806372
45	0xbf83b3c9	-1.0289241
46	0xbf6c2b9d	-0.9225405
47	0xbdfcfacb	-0.123525225
48	0x89b0c1ca	-4.2552697e-33
49	0xbf95f081	-1.1714021
50	0x93920c26	-3.686756e-27
51	0xbea6e389	-0.3259547
52	0xbe3a0fb6	-0.18170056
53	0xbe1b953e	-0.1519365
54	0xbf95b55f	-1.1695975
55	0x3f603fff	0.8759765
56	0xbf093db6	-0.5360979
57	0xbee0f8d8	-0.43939853
58	0xa70091ca	-1.78426e-15
59	0xbfb64829	-1.4240772
60	0x3cd27957	0.025692625
61	0xbe14f964	-0.1454826
62	0xbf16b9c5	-0.5887721
63	0xbdac7a41	-0.084217556
64	0xbb8a19f9	-0.004214522
65	0xbe742ce8	-0.23845255
66	0xbf70380e	-0.9383553
67	0xbf00d823	-0.503298
68	0xba89df34	-0.001051879
69	0xbf90501e	-1.127445
70	0xbe28144f	-0.16413997
71	0xbfb80116	-1.4375331
72	0x9092f8d9	-5.7970257e-29
73	0x3e1cfbd6	0.15330443
74	0xbf814647	-1.0099572
75	0x3de0ef6b	0.10983165
76	0xbfb9a353	-1.4502968
77	0xbec4e7e0	-0.38458157
78	0xbf160db9	-0.5861469
79	0xbd9014d3	-0.07035222
80	0xbf42462e	-0.75888336
81	0x80068db0	-6.01841e-40
82	0xbd6d9e40	-0.058012247
83	0xbf44ad67	-0.7682709
84	0xbf938597	-1.1525143
85	0xbfa711a3	-1.3052257
86	0xbf9a0611	-1.2033101
87	0x3e3d8860	0.18509054
88	0x3e8b8827	0.27252313
89	0xbe82e851	-0.25567868
90	0xbee8fd6e	-0.45505852
91	0xbf8d5fce	-1.1044862
92	0xbe14805d	-0.14502092
93	0xbf467cb1	-0.77534014
94	0xbe3244c0	-0.17409039
95	0xbfa30491	-1.2735769
96	0xbe49135c	-0.19636291
97	0x3dd073e9	0.10178358
98	0x884136d2	-5.8143266e-34
99	0xbe0c7b79	-0.13718976
100	0xbb048915	-0.0020223309
101	0xbdc6b850	-0.097031236
