fnn_FeatureRegression/fnn_aug17all_oldloss.pt (torch, 585175 bytes, 28 tensors)

layers.0.weight f4 [64, 48]
-1.8744777e-38 -2.1331814e-29 1.4106412e-38 -1.5175911e-33 -1.9202878e-38 -1.4080878e-28 2.447203e-38 -1.14643255e-33
-1.8744777e-38 -2.1331814e-29 1.4106412e-38 -1.5175911e-33 7.213279e-39 -7.157591e-29 -7.37382e-37 -1.3927078e-33
-1.9202878e-38 -1.4080878e-28 2.447203e-38 -1.14643255e-33 7.213279e-39 -7.157591e-29 -7.37382e-37 -1.3927078e-33
-1.9202878e-38 -1.4080878e-28 2.447203e-38 -1.14643255e-33 -1.8744777e-38 -2.1331814e-29 1.4106412e-38 -1.5175911e-33
7.213279e-39 -7.157591e-29 -7.37382e-37 -1.3927078e-33 -1.8744777e-38 -2.1331814e-29 1.4106412e-38 -1.5175911e-33
7.213279e-39 -7.157591e-29 -7.37382e-37 -1.3927078e-33 -1.9202878e-38 -1.4080878e-28 2.447203e-38 -1.14643255e-33
-0.015114301 -0.03155004 -0.054997284 -0.027170843 -0.064872265 0.118884526 -0.5670129 0.020670883
0.014255158 0.047736607 0.019421708 0.034167424 -0.0022106622 0.11758724 -0.59707975 0.057219043
0.018483466 0.0032626002 -0.54397416 0.03133452 -0.004995176 -0.08003027 -0.6246407 -0.061955567
0.07326769 -0.059474673 -0.5780366 -0.10525657 -0.08751433 0.03441258 0.034975603 0.051765997
-0.05694567 -0.022863215 -0.56689036 0.05211866 0.07855326 -0.043339282 0.05873073 -0.049260072
0.066441014 0.012588196 -0.66214067 -0.04497173 -0.020160636 -0.04348504 -0.584698 0.064286575
0.055277795 0.014078216 -0.108231984 0.063397944 -0.052854214 -0.05632918 0.10913079 0.070174314
0.028181158 -0.061107803 0.024880039 -0.06867057 0.04783528 0.026565647 0.06485389 0.017723277
0.06871721 -0.054585245 0.107829444 -0.04576075 -0.0047149463 -0.082609996 -0.0027306925 0.0025134718
0.073398925 0.05723786 -0.11058994 0.022300152 -0.07433195 0.046973854 0.03630909 0.05520253
-0.0619856 0.0895527 0.10962612 -0.032580078 -0.015217501 -0.11991729 0.006664825 -0.06550856
0.016536528 0.03881474 -0.026664857 0.015005201 -0.09316656 0.04571894 -0.05898397 -0.056213763
-0.51229554 0.10149476 -0.018322738 0.0065771886 0.30639946 -0.115389735 0.060245886 0.06114129
-0.47125456 0.045713436 -0.12739143 0.010665272 -0.16765024 0.035254948 0.046286292 0.120172754
0.30515537 0.023562957 -0.01943469 0.10672115 -0.22202091 0.038988568 -0.0413969 -0.005103441
0.43069613 0.11953875 -0.0595518 -0.08126821 -0.44031078 -0.07458141 0.01413188 0.021895705
-0.2669787 0.09125503 0.08695012 -0.1386217 -0.50441855 -0.02482883 0.093189165 -0.029196281
-0.19270451 -0.15326115 0.034082353 0.04014248 0.22465849 -0.012198956 -0.0145418495 -0.07459312
0.105854645 -0.0063025234 0.24097711 0.014917062 -0.04482516 0.03330692 0.1718122 -0.024429614
0.019162944 0.067927286 0.27204198 -0.00528351 0.02489466 0.13147986 0.83254707 0.065295935
-0.025947636 -0.13255467 0.41817516 0.02590233 -0.099184774 0.054408066 0.6514438 0.008582087
0.053635858 0.048716877 0.3900412 0.040909514 -0.065727726 -0.009136216 0.26185003 0.04047882
0.0070054433 -0.098069474 0.8459313 0.03082185 -0.041551985 -0.037796363 0.18132128 -0.01886965
0.05854837 -0.021656169 0.8717308 -0.11920457 0.06816103 0.060019378 0.18637122 -0.027794719
-4.6180912e-33 -1.17553e-29 1.224603e-32 -2.924028e-31 1.510141e-33 -7.379032e-30 -4.2543442e-32 -2.740059e-31
-4.6180912e-33 -1.17553e-29 1.224603e-32 -2.924028e-31 5.060815e-33 -5.5128235e-31 -1.0761443e-32 -4.159271e-31
00000000: d01c cc80 8e54 d88f f09a 9900 3027 fc88
00000010: d019 d180 107f 3291 083d 0501 d97b be88
00000020: d01c cc80 8e54 d88f f09a 9900 3027 fc88
00000030: b08b 4e00 6c77 b590 08eb 7a83 3d67 e788
00000040: d019 d180 107f 3291 083d 0501 d97b be88
00000050: b08b 4e00 6c77 b590 08eb 7a83 3d67 e788
00000060: d019 d180 107f 3291 083d 0501 d97b be88
00000070: d01c cc80 8e54 d88f f09a 9900 3027 fc88
00000080: b08b 4e00 6c77 b590 08eb 7a83 3d67 e788
00000090: d01c cc80 8e54 d88f f09a 9900 3027 fc88
000000a0: b08b 4e00 6c77 b590 08eb 7a83 3d67 e788
000000b0: d019 d180 107f 3291 083d 0501 d97b be88
000000c0: f9a1 77bc 9d3a 01bd d544 61bd 6395 debc
000000d0: c0db 84bd bb79 f33d c227 11bf fc55 a93c
000000e0: 778e 693c 7687 433d 461a 9f3c 24f3 0b3d
000000f0: c2e0 10bb 94d1 f03d 38da 18bf 845e 6a3d
00000100: a36a 973c 59d1 553b e441 0bbf a058 003d
00000110: 93ae a3bb e9e6 a3bd 74e8 1fbf 1fc5 7dbd
00000120: 5f0d 963d b79b 73bd 35fa 13bf c290 d7bd
00000130: b73a b3bd 35f4 0c3d 9442 0f3d 9508 543d
00000140: dd3f 69bd a34b bbbc ba1f 11bf 607a 553d
00000150: 88e0 a03d 8884 31bd a28f 703d eec4 49bd
00000160: 3a12 883d b93e 4e3c 0d82 29bf 4734 38bd
00000170: eb27 a5bc 5f1d 32bd c5ae 15bf aea8 833d
00000180: f86a 623d 51a8 663c bba8 ddbd c8d6 813d
00000190: a97d 58bd 6db9 66bd f77f df3d 8db7 8f3d
000001a0: 2cdc e63c 2d4c 7abd 39d1 cb3c 28a3 8cbd
000001b0: edee 433d 33a0 d93c 1ed2 843d 6830 913c
000001c0: 9cbb 8c3d c794 5fbd afd5 dc3d a06f 3bbd
000001d0: d67f 9abb 6e2f a9bd 6bf5 32bb 0fb9 243b
000001e0: 2d52 963d 3f72 6a3d fa7c e2bd cfae b63c
000001f0: 593b 98bd a867 403d d7b8 143d 0c1c 623d
00000200: 9de4 7dbd 6867 b73d a983 e03d b072 05bd
00000210: d352 79bc 3297 f5bd 9b64 da3b 5a29 86bd
00000220: 9d77 873c 34fc 1e3d 4270 dabc 60d8 753c
00000230: 1cce bebd c943 3b3d 2d99 71bd 6740 66bd
00000240: cd25 03bf 7cdc cf3d 9119 96bc 7585 d73b
00000250: 64e0 9c3e 7451 ecbd 64c4 763d 4a6f 7a3d
00000260: 4748 f1be 033e 3b3d e672 02be 65bd 2e3c
00000270: 81ac 2bbe 7e67 103d b296 3d3d 221d f63d
00000280: 533d 9c3e 1a07 c13c 8035 9fbc 9e90 da3d
00000290: 7359 63be 7ab2 1f3d cc8f 29bd c43a a7bb
000002a0: 3484 dc3e bbd0 f43d 97ec 73bd f36f a6bd
000002b0: 6a70 e1be 23be 98bd 6789 673c 9f5e b33c
000002c0: 6fb1 88be ebe3 ba3d e812 b23d d9f2 0dbe
000002d0: 9321 01bf d565 cbbc f6d9 be3d 0a2d efbc
000002e0: 5554 45be 7ef0 1cbe f099 0b3d 716c 243d
000002f0: e00c 663e 21de 47bc f040 6ebc 47c4 98bd
00000300: 52ca d83d 6685 cebb b4c2 763e b166 743c
00000310: 969a 37bd d66c 083d 8aef 2f3e 9d20 c8bc
00000320: 9bfb 9c3c 761d 8b3d 1649 8b3e 4b21 adbb
00000330: e3ef cb3c a8a2 063e ce21 553f e0b9 853d
00000340: 2390 d4bc 69bc 07be 0e1b d63e 2031 d43c
00000350: 6321 cbbd feda 5e3d 05c5 263f e29b 0c3c
00000360: 46b1 5b3d 598b 473d 7bb3 c73e bc90 273d
00000370: 429c 86bd 11b0 15bc 3511 863e 1fcd 253d
00000380: eb8d e53b a6d8 c8bd f48e 583f 1b7e fc3c
00000390: 6a32 2abd 5cd0 1abd 49ac 393e 8694 9abc
000003a0: 6ad0 6f3d 4768 b1bc c029 5f3f 8721 f4bd
000003b0: 0398 8b3d e1d6 753d 19d8 3e3e c0b1 e3bc
000003c0: f8d3 bf89 026d 6e8f 1057 7e0a c0c7 bd8c
000003d0: 4bea fa08 20aa 158f efe5 5c8b 0ad7 b18c
000003e0: f8d3 bf89 026d 6e8f 1057 7e0a c0c7 bd8c
000003f0: d137 d209 bfe6 328d a581 5f8a dff9 068d

layers.0.bias f4 [64]
-9.308303e-37 -0.71089053 -1.7755312 1.6443928 0.25104618 -5.9132326e-32 -3.0591018e-38 1.3043293
0.3978092 0.04899249 1.1368834 -0.077231765 -2.3674799e-37 -0.1184551 -1.0806996 0.26564533
-2.520332e-35 -0.13374211 0.301929 -0.36496317 -4.079715e-32 -0.01760697 0.79172623 0.8271691
-1.0639838 -0.519515 -1.3321981e-33 0.5219638 -0.54260856 3.1661773 -6.231793e-37 -2.904167e-17
-0.23632783 -0.52374774 0.110274196 -0.3793971 -0.9344301 0.5015471 -0.37482774 -0.23666495
-9.335541e-18 0.63678765 -0.03921222 1.1596355 -0.032165974 -0.2237084 1.8060317 -1.6071684e-36
0.40853563 -1.588849e-36 -0.35973492 -6.3585044e-06 0.3304781 -0.5909599 -0.1383579 -0.27793762
-0.06410386 0.045410488 -2.4631654e-25 0.2496494 -0.62865424 0.40366945 -0.27452806 -8.8093693e-38
00000000: 615f 9e83 ecfc 35bf 9b44 e3bf 777b d23f
00000010: 2089 803e 2c84 998b a88d 2681 43f4 a63f
00000020: a6ad cb3e 59ac 483d 6585 913f b02b 9ebd
00000030: 511f a182 9698 f2bd 5d54 8abf aa02 883e
00000040: fb00 0686 b1f3 08be 7096 9a3e 74dc babe
00000050: b7d4 538b 7e3c 90bc 92ae 4a3f 5bc1 533f
00000060: 9f30 88bf effe 04bf 7159 dd88 6b9f 053f
00000070: 65e8 0abf a6a2 4a40 930e 5483 5aee 05a4
00000080: ecff 71be 5514 06bf 70d7 e13d 5640 c2be
00000090: d036 6fbf 6465 003f 6ce9 bfbe 4c58 72be
000000a0: d935 2ca3 8404 233f fe9c 20bd f06e 943f
000000b0: 78c0 03bd d113 65be 0c2c e73f 07b9 0884
000000c0: 952b d13e 112a 0784 2d2f b8be 235b d5b6
000000d0: 6d34 a93e 2649 17bf b1ad 0dbe d74d 8ebe
000000e0: e248 83bd 5900 3a3d 6a76 9896 18a4 7f3e
000000f0: 7cef 20bf c3ad ce3e f18e 8cbe 58d0 ef81

layers.1.weight f4 [72, 64]
-7.09002e-32 0.15129615 0.12297931 -0.0046635647 0.0787185 -4.1065506e-28 -6.906253e-34 0.048883334
0.019142034 -0.030090343 0.029478531 0.14928453 -3.0408188e-35 -0.0058584404 0.109217785 0.17095931
-4.350371e-34 0.050030835 -0.06336155 0.006643041 8.6140967e-32 0.12721021 0.10164695 0.03698982
0.07540699 0.0872075 2.8672653e-28 0.16096306 0.059084058 0.04071783 2.0899391e-33 6.7932343e-10
-0.10127981 -0.021721022 -0.009922645 -0.096641764 -0.00088150264 0.0025685232 -0.106902055 0.061793406
-3.8032677e-15 -0.1570301 0.19285747 0.19110192 0.046487913 -0.06874753 0.2636892 2.4991723e-33
-0.0034796665 4.927212e-39 0.00080969604 -0.0020844769 0.05508295 -0.03393481 -0.023285192 0.031583194
0.11425384 -0.009930202 -2.319224e-22 0.023410957 0.0045310394 -0.058178805 -0.06733734 2.7793623e-38
1.1327183e-30 0.11922724 0.022639187 -0.03590049 0.05924351 -9.3489063e-29 2.8360836e-33 0.048757274
0.105579294 -0.0023973782 0.018848937 -0.038885355 4.5723322e-36 0.06619953 0.08878625 0.09102965
6.1260613e-34 0.031724434 0.09980695 0.09765511 -1.016728e-31 -0.0042087683 0.012984405 0.083181754
-0.08288873 -0.008902219 -1.5549942e-29 0.12103793 0.029675 -0.10148842 -2.5989756e-33 1.0355622e-12
0.034610026 0.032957714 0.11511559 0.1602017 0.17836215 -0.025455067 0.00024808248 -0.044062506
-2.2813572e-15 -0.13865049 -0.13518775 0.043920748 0.035378475 0.010958804 -0.16127953 -8.131093e-34
0.0021414615 2.6545458e-38 0.028155895 -0.000811251 0.015689526 0.082135364 0.040543273 -0.022821661
-0.052559085 0.00261176 2.3783662e-22 -0.08708069 0.07794911 -0.0017545837 0.042698096 -1.7263975e-38
3.2487495e-31 -0.011738363 -0.06446205 0.062819555 0.057691045 -1.193494e-28 -1.3124164e-33 0.332222
0.06327269 -0.06784925 0.007722281 -0.031688828 4.1778138e-37 0.032984294 -0.017851766 -0.069059975
8.274378e-34 0.049719 -0.18937632 0.08785986 -5.1152125e-32 0.004875293 0.09539989 0.05763891
0.0155111 -0.041759886 -1.9335277e-29 0.0281634 -0.009737642 0.088004805 -1.1319145e-33 -3.0351887e-14
-0.0003124318 0.057836305 -0.02188574 0.19649081 0.087486446 0.047463223 -0.051895235 0.027156599
-9.580252e-16 0.12363457 -0.023222145 -0.009246448 -0.102251925 0.089204855 -0.1739757 -1.3123605e-33
0.05439113 1.8512946e-38 0.0044362396 -0.0033638426 -0.059832804 -0.076673485 0.15555222 0.08686622
0.07010853 0.011619541 2.111488e-22 0.030977778 0.06118049 0.14697418 0.0010760833 -2.6155292e-38
-4.526093e-31 0.16852908 -0.05037103 0.13976663 0.056515686 2.7903102e-28 -2.4147554e-34 -0.047281362
0.028955681 0.09587448 -0.14346077 0.015386401 5.912244e-35 0.058607686 0.013764324 -0.02670436
-8.6992373e-35 0.022774352 -0.054287445 -0.012341668 5.118804e-33 0.09657758 0.096532874 0.0741805
-0.01912943 -0.048527345 -1.0747972e-28 0.021776076 0.21178341 0.058521528 -9.50819e-35 -7.511523e-13
0.035330497 0.0115935635 0.0038117825 0.0011574188 0.023071462 -0.08831503 -0.044417664 0.041646566
3.0373583e-15 -0.0014997161 -0.027626436 -0.04907765 -0.08660225 0.014476267 -0.05834265 -4.6861427e-34
0.4384425 5.7556686e-38 -0.05682013 0.0031543786 0.00013091501 0.14722583 0.022329237 0.1102528
-0.019811641 0.021627428 1.7230103e-22 -0.04115376 -0.0087010795 0.023422746 -0.010403223 1.4758498e-38
00000000: 4411 b88b 61ed 1a3e 94dc fb3d d1d0 98bb
00000010: 2a37 a13d 4c24 0292 e77f 6588 e439 483d
00000020: c1cf 9c3c 0680 f6bc f67c f13c 0bde 183e
00000030: 7bad 2186 29f8 bfbb 93ad df3d f50f 2f3e
00000040: dd90 1088 22ed 4c3d b3c3 81bd dead d93b
00000050: 7ea2 df0b 6543 023e 472c d03d a382 173d
00000060: fb6e 9a3d d999 b23d 0abc b511 80d3 243e
00000070: 2002 723d bdc7 263d 17a0 2d09 23bb 3a30
00000080: ca6b cfbd 49f0 b1bc 9792 22bc 1eec c5bd
00000090: a414 67ba ab54 283b 77ef dabd 151b 7d3d
000000a0: f406 89a7 80cc 20be 6e7c 453e 39b0 433e
000000b0: 1c6a 3e3d 81cb 8cbd 4502 873e 849f 4f09
000000c0: 1e0b 64bb 10a7 3500 c841 543a b89b 08bb
000000d0: a99e 613d 3aff 0abd 96c0 bebc 615d 013d
000000e0: ebfd e93d 49b2 22bc 4130 8c9b 56c8 bf3c
000000f0: 1d79 943b e64c 6ebd 29e8 89bd a852 1701
00000100: 47cb b70d 692d f43d d175 b93c 640c 13bd
00000110: 53a9 723d df05 ed90 d49c 6b09 b5b5 473d
00000120: f539 d83d 551d 1dbb 1669 9a3c 4046 1fbd
00000130: 4a7c c204 9f93 873d 91d5 b53d c16d ba3d
00000140: c492 4b08 7bf1 013d 9667 cc3d 67ff c73d
00000150: 95fa 038c b5e9 89bb 8bbc 543c 325b aa3d
00000160: 91c1 a9bd 9dda 11bc f5b1 9d8f bce2 f73d
00000170: fc18 f33c 29d9 cfbd 19ea 5789 0fbe 912b
00000180: 3ec3 0d3d abfe 063d b9c1 eb3d ea0b 243e
00000190: 91a4 363e 2587 d0bc 1111 8239 e37a 34bd
000001a0: 9d63 24a7 65fa 0dbe a86e 0abe 3ee6 333d
000001b0: 05e9 103d 8e8c 333c 7626 25be d819 8788
000001c0: c357 0c3b f886 1001 31a7 e63c 22aa 54ba
000001d0: 5287 803c 9636 a83d b410 263d 7ef4 babc
000001e0: 3248 57bd 102a 2b3b 6fc3 8f1b 5c57 b2bd
000001f0: c8a3 9f3d 0ffa e5ba 33e4 2e3d f0fc bb80
00000200: 1cdb d20c 4352 40bc ae04 84bd 8aa7 803d
00000210: 724d 6c3d 184b 1791 0510 da88 0119 aa3e
00000220: 1d95 813d 8cf4 8abd 300b fd3b 25cc 01bd
00000230: e429 0e03 8a1a 073d de3d 92bc 516f 8dbd
00000240: 507b 8908 26a6 4b3d deeb 41be dfef b33d
00000250: 6bcc 848b ecc0 9f3b 0461 c33d c716 6c3d
00000260: 4522 7e3c 6a0c 2bbd 4015 c48f eeb6 e63c
00000270: a18a 1fbc dd3b b43d 5112 bc88 58b1 08a9
00000280: e3cd a3b9 c3e5 6c3d b949 b3bc e334 493e
00000290: 182c b33d cc68 423d 1990 54bd 8477 de3c
000002a0: e410 8aa6 1f34 fd3d 5e3c bebc 6a7e 17bc
000002b0: 7569 d1bd 09b1 b63d b026 32be a40d da88
000002c0: 3cc9 5e3d 9096 c900 e05d 913b ea73 5cbb
000002d0: 3e13 75bd fd06 9dbd 1549 1f3e ebe6 b13d
000002e0: 1095 8f3d e35f 3e3c 6343 7f1b 1cc5 fd3c
000002f0: 6598 7a3d 6680 163e 5d0b 8d3a 2867 0e81
00000300: 4fe1 128d e392 2c3e da51 4ebd fc1e 0f3e
00000310: fe7c 673d 5fdb b011 ef7c a087 1aaa 41bd
00000320: 7734 ed3c d759 c43d 61e7 12be 3e17 7c3c
00000330: a62c 9d06 9d0e 703d c283 613c 1ac3 dabc
00000340: f143 e786 4791 ba3c 835c 5ebd b534 4abc
00000350: 76a0 d409 77ca c53d 07b3 c53d f2eb 973d
00000360: 53b5 9cbc 9cc4 46bd 2a3f 0891 be63 b23c
00000370: c0dd 583e 45b4 6f3d 63c5 fc86 3a6e 53ab
00000380: b6b6 103d eef2 3d3c 19cf 793b 88b4 973a
00000390: 5d00 bd3c 83de b4bd 4cef 35bd 9795 2a3d
000003a0: 5fdd 5a27 1f92 c4ba d650 e2bc a505 49bd
000003b0: 855c b1bd dd2d 6d3c b4f8 6ebd 4bb9 1b88
000003c0: 897b e03e 28af 9c01 3abc 68bd b1b9 4e3b
000003d0: 3b46 0939 5ec2 163e ceeb b63c 38cc e13d
000003e0: 064c a2bc 012c b13c 964c 501b d890 28bd
000003f0: f98e 0ebc 0fe1 bf3c 4872 2abc b0b4 a000

layers.1.bias f4 [72]
-0.32856894 -0.3208406 -0.7837175 -0.11624893 -0.1630901 0.28847748 -4.5644335e-25 0.43371347
-0.49295875 0.33051464 -0.15211093 -0.96918434 -5.105188e-34 -1.0192506 0.15380625 0.38999096
-0.32448858 0.2728579 -0.6562715 -0.28311718 0.07829085 -0.5737204 1.2112474 0.033966497
-0.38709867 -4.0837125e-31 -1.3472332 -0.33315906 0.9394254 -1.6327774e-21 -1.217579 0.9472693
-4.9170823e-38 -0.22844142 -0.6859132 2.085281 -1.0667547 -0.17816742 0.95859873 -0.93230695
0.16152844 -1.2207354 -0.7395173 -0.53711396 -0.79961056 -0.002975969 -0.23674405 -0.3199204
-0.47705337 -0.77278537 -0.54178953 -0.55656564 -1.0691243 -1.1428173 -0.019401204 -0.75826603
1.4470336 -1.5710001e-27 0.83605665 -0.9163505 -3.2256512e-18 -1.8754262e-26 -0.4039837 -0.14178956
-0.57179004 -3.378096e-26 -1.0995048 -1.4531341 -0.95361954 0.49669024 -0.5514756 -0.32242098
00000000: 303a a8be 3845 a4be b6a1 48bf eb13 eebd
00000010: 1701 27be 52b3 933e 2b43 0d97 b10f de3e
00000020: 1765 fcbe 3739 a93e f8c2 1bbe 771c 78bf
00000030: 23a6 2988 ce76 82bf 637f 1d3e e5ac c73e
00000040: 5e23 a6be 08b4 8b3e 6901 28bf bcf4 90be
00000050: f456 a03d 57df 12bf 280a 9b3f 7420 0b3d
00000060: cc31 c6be 2886 048d 2372 acbf d393 aabe
00000070: 2f7e 703f 04bd f69c a1d9 9bbf 3e80 723f
00000080: 10db 8581 8cec 69be 0298 2fbf 3e75 0540
00000090: 6b8b 88bf 8571 36be ba66 753f abab 6ebf
000000a0: b667 253e 0f41 9cbf 0151 3dbf 4d80 09bf
000000b0: 47b3 4cbf 7a08 43bb 086d 72be 9bcc a3be
000000c0: 5740 f4be 43d5 45bf b8b2 0abf 167b 0ebf
000000d0: 11d9 88bf d647 92bf 46ef 9ebc b91d 42bf
000000e0: 6638 b93f 56ef f892 cf07 563f f295 6abf
000000f0: d402 6ea2 b4bb b994 f4d6 cebe 4831 11be
00000100: d560 12bf 7446 2795 93bc 8cbf 4c00 babf
00000110: 6920 74bf 2f4e fe3e 812d 0dbf 5d14 a5be

layers.2.weight f4 [82, 72]
-0.20732714 0.057234928 -0.16874543 0.15723078 -0.04892831 -0.051709794 -1.2696832e-25 -0.043152716
-0.038810387 -0.09455761 -0.001789647 -0.009883003 -7.555253e-34 0.05353302 -0.0055978703 -0.0369265
0.03440742 -0.15397349 -0.023493664 0.021147728 0.0043038577 -0.006322013 0.21568733 -0.10929355
-0.016565468 -2.1045983e-33 0.055858158 0.15636371 -0.044391815 1.3738299e-20 -0.01074679 -0.02876412
-2.9069365e-38 0.22092572 0.1598198 -0.016644748 0.11944296 0.08968843 -0.003747162 0.037362285
0.011843658 -0.028029762 -0.01004924 -0.051936403 0.0030219199 -0.0011382538 0.22696191 -0.124071494
0.013728501 0.061259076 0.103333704 0.05337698 -0.1194405 0.15381065 -0.18602315 0.031130472
-0.08504076 1.3807367e-32 0.23537256 0.0016700891 1.2717438e-18 -6.081671e-28 0.004004578 0.070465736
-0.008746221 -1.0702859e-21 -0.001702551 -0.004722921 -0.023347449 -0.111775674 0.026651088 -0.06518295
-8.818462e-18 -8.236015e-18 -7.865052e-18 -8.355725e-18 -4.360765e-18 -1.7907761e-18 -9.774135e-39 -8.951604e-19
-8.338518e-18 -1.5623824e-17 -3.823446e-18 -1.2891537e-18 3.1011094e-38 -8.255702e-18 -1.0053803e-18 -3.6140398e-18
-2.657056e-18 -9.151125e-18 -9.727569e-18 -2.3140293e-18 -2.4849498e-19 -6.6369457e-18 -8.475141e-18 -9.196739e-18
1.9174801e-18 -2.1887228e-38 -8.457054e-19 -5.4972773e-18 -2.9335222e-18 3.71232e-39 -2.8185063e-18 -2.8989614e-18
-4.89089e-39 -4.6588673e-18 -2.5792242e-18 1.466216e-20 -6.8948594e-18 -4.8568232e-18 -4.7154485e-18 -5.2726964e-21
-7.773892e-18 -7.534288e-18 -4.6872615e-18 -6.0588118e-18 -8.348351e-18 -1.927197e-18 -1.08087575e-17 -7.656438e-18
-3.170926e-19 -4.8302935e-18 -3.4136586e-18 -2.969974e-18 -7.731158e-18 -1.5368104e-18 -9.412771e-18 -7.0498445e-18
-2.9341428e-18 8.896407e-39 -4.139692e-18 -1.1738133e-17 -1.789694e-39 -1.032275e-39 -9.7619364e-18 -3.5811502e-18
3.0178532e-19 -1.0422813e-38 -6.9451e-18 -3.7379994e-18 -2.5341573e-18 -1.1518762e-17 -1.1050587e-17 -3.1847237e-18
0.16954224 0.07003407 -0.03642766 -0.08028245 0.17857827 -0.05284706 8.668332e-25 -0.0035086945
-0.021353262 -0.03542165 0.00659879 0.10286824 -1.9452311e-32 -0.06344037 0.09075817 -0.24122967
-0.017862922 -0.03286529 -0.0050328826 0.04569736 0.22383481 -0.026429802 0.08947402 -0.03817987
-0.007561954 5.1545563e-33 0.07565259 -0.028594526 0.055360805 -2.3922533e-20 -0.080272235 0.1674947
5.3471397e-38 0.16305119 0.1821335 0.28205004 0.0070120827 0.040521972 -0.051956914 0.038355924
-0.10357234 -0.020144088 -0.02390034 0.05543474 -0.012251581 0.09532709 -0.00591976 -0.02614168
0.2823746 0.031497903 0.06464909 0.24429063 -0.017805262 0.12124452 0.032521643 -0.048908114
-0.18667218 -5.9549223e-31 0.05323765 0.09902384 -3.643696e-18 4.8765748e-27 0.114961505 0.09496992
0.0370756 4.892677e-25 0.19083248 0.064292155 -0.011037056 0.037169047 0.062858894 0.009777599
-1.4746011e-24 -5.247699e-25 -1.0000902e-24 -1.3725909e-25 -3.0025989e-25 -2.0992064e-25 -1.5908639e-38 -1.00442984e-25
-1.4081377e-25 -7.728111e-25 -2.8788988e-25 1.0010435e-25 8.335798e-39 -1.4199305e-25 8.405375e-26 -1.3038319e-25
1.9312938e-25 -6.3165424e-25 -5.3151426e-26 -8.121307e-26 1.6248741e-26 1.1058219e-25 -7.2219895e-25 -1.412128e-24
-4.4106357e-25 -1.0087488e-38 8.5221545e-27 -7.8450945e-25 -2.0742528e-25 7.787072e-39 5.655934e-26 -1.4685134e-25
-1.2231721e-38 -5.1541184e-25 3.867309e-27 4.088159e-28 -8.236011e-25 -1.5046814e-25 -3.892578e-25 9.084849e-28
00000000: 914d 54be 2c6f 6a3d 9acb 2cbe 1b01 213e
00000010: 0d69 48bd a6cd 53bd de2d 1d96 e7c0 30bd
00000020: a4f7 1ebd 6ca7 c1bd 9792 eaba 52ec 21bc
00000030: fc10 7b88 7145 5b3d 576e b7bb 3e40 17bd
00000040: cbee 0c3d 3aab 1dbe c975 c0bc 003e ad3c
00000050: 6007 8d3b e428 cfbb 24dd 5c3e 4cd5 dfbd
00000060: 4eb4 87bc dbd7 2e89 86cb 643d cf1d 203e
00000070: 31d4 35bd 2bc1 811e 4e13 30bc bba2 ebbc
00000080: c844 1e81 5a3a 623e cda7 233e 915a 88bc
00000090: 839e f43d 91ae b73d f292 75bb 3209 193d
000000a0: e70b 423c ac9e e5bc 91a5 24bc 44bb 54bd
000000b0: 670b 463b 7631 95ba b468 683e 3219 febd
000000c0: 82ed 603c ccea 7a3d 9fa0 d33d d2a1 5a3d
000000d0: 399d f4bd 8a80 1d3e da7c 3ebe 5505 ff3c
000000e0: da29 aebd 4762 8f0a 8105 713e e4e6 da3a
000000f0: 1fad bb21 60bc 4092 d638 833b 5750 903d
00000100: 4f4c 0fbc aebc a19c 2228 dfba bcc2 9abb
00000110: 2643 bfbc a5ea e4bd 6253 da3c a37e 85bd
00000120: 02ac 22a3 7bed 17a3 a815 11a3 cc22 1aa3
00000130: 43e2 a0a2 ce22 04a2 506e 6a80 341a 84a1
00000140: 8ad1 19a3 b61a 90a3 6d0f 8da2 da3e bea1
00000150: 28d7 2801 734a 18a3 325e 94a1 a455 85a2
00000160: 5e0e 44a2 f7ce 28a3 2571 33a3 c7be 2aa2
00000170: 80af 92a0 2edc f4a2 b956 1ca3 5fa6 29a3
00000180: 2d7c 0d22 b054 ee80 b29b 79a1 51d0 caa2
00000190: ab74 58a2 706c 2800 14f8 4fa2 d5e7 55a2
000001a0: d041 3580 c2e1 aba2 2b50 3ea2 ed7a 8a1e
000001b0: 1b60 fea2 662f b3a2 27f8 ada2 6432 c79d
000001c0: 2b67 0fa3 abfb 0aa3 efed aca2 dc87 dfa2
000001d0: f9ff 19a3 b933 0ea2 ea62 47a3 823c 0da3
000001e0: ae2d bba0 d534 b2a2 30e2 7ba2 3925 5ba2
000001f0: 5d9d 0ea3 0ecb e2a1 8ea2 2da3 f30b 02a3
00000200: 6480 58a2 90df 6000 49ba 98a2 c487 58a3
00000210: f07c 1380 903d 0b80 7113 34a3 021f 84a2
00000220: 8224 b220 907e 7180 4f1d 00a3 68e8 89a2
00000230: e1fc 3aa2 d17b 54a3 ecd8 4ba3 bbfd 6aa2
00000240: 7b9c 2d3e 066e 8f3d 2c35 15bd 206b a4bd
00000250: 39dd 363e 2976 58bd cd22 8617 20f2 65bb
00000260: 09ed aebc 4b16 11bd aa3a d83b 95ac d23d
00000270: 1d01 ca8a 06ed 81bd 6bdf b93d e904 77be
00000280: 4355 92bc c19d 06bd e1ea a4bb 282d 3b3d
00000290: f434 653e 5083 d8bc 283e b73d 7f62 1cbd
000002a0: 45ca f7bb a51c d609 bfef 9a3d 113f eabc
000002b0: 03c2 623d 23f1 e19e c565 a4bd bb83 2b3e
000002c0: 2090 9101 e4f6 263e 3481 3a3e dd68 903e
000002d0: 9dc5 e53b 5efa 253d c6d0 54bd 1a1b 1d3d
000002e0: bc1d d4bd 3705 a5bc a5ca c3bc 8a0f 633d
000002f0: dbba 48bc d93a c33d 8cfa c1bb 1427 d6bc
00000300: 6793 903e f203 013d be66 843d 5327 7a3e
00000310: 57dc 91bc 0c4f f83d 6a35 053d e053 48bd
00000320: fe26 3fbe 8f3f 418d b90f 5a3d 03cd ca3d
00000330: bc6d 86a2 582e c113 f070 eb3d 977f c23d
00000340: 96dc 173d c86b 1717 9769 433e 9bab 833d
00000350: c5d4 34bc 923e 183d 2abc 803d 3932 203c
00000360: f82e e497 8e68 2297 a8c1 9a97 24eb 2996
00000370: 14da b996 41ef 8196 d03a ad80 4eaf f895
00000380: aa51 2e96 672c 6f97 f931 b296 abd8 f715
00000390: d0c4 5a00 65c7 2f96 651b d015 1568 2196
000003a0: 2515 6f16 ce7c 4397 b898 8395 e612 c995
000003b0: 74eb a014 e5e4 0816 7f82 5f97 2784 da97
000003c0: a880 0897 d0d7 6d80 75cc 2814 3ecb 7297
000003d0: d963 8096 30cb 5400 be08 8c15 0ccb 3596
000003e0: 1031 8580 2283 1f97 2c33 9913 168f 0112
000003f0: 67e4 7e97 4245 3a96 5cf0 f096 87f4 8f12

layers.2.bias f4 [82]
1.4804615 -8.969849e-19 -1.4242357 -5.38209e-26 -0.7497587 -0.10404078 -2.0894673e-31 -1.614089
-0.3966905 0.5465222 -0.7859604 -0.4452109 -1.8100454 -1.2098693 -0.87992924 -1.37392
-0.7999732 -0.23161364 -0.48832652 -0.9808381 -1.0162287 0.38846427 0.24996187 -1.3107811
0.62902397 -0.8841223 -1.3937845 1.6562417 -0.36339808 -0.8541523 -0.055281892 0.55196625
0.94700354 -1.3769677 -2.1544406 -0.8027038 0.74203974 2.0924637 -0.73561156 -0.93369836
-1.9381121 -1.0466019e-33 0.078675166 1.7252177 -0.7144888 -0.78402764 0.50734484 2.0108242
-0.47221118 -0.73720706 -1.9707215 -0.8898464 -0.76263297 0.37559646 -0.12477955 0.060745317
-1.22673726e-26 -1.9529612e-35 -0.8237591 -0.6586918 -0.09225522 0.863576 -0.4865805 -0.6120413
-0.5404065 0.22494361 -0.6986463 -0.8879714 1.6206005 0.09892322 0.090508476 0.8033439
-1.0783993 -1.4606266 -2.184761 1.143984 -1.2864122 1.8613483 0.6305622 0.06273513
-0.96930933 -2.3750195e-37
00000000: c37f bd3f 225f 84a1 5b4d b6bf 0c41 8595
00000010: 30f0 3fbf 5513 d5bd 3b9d 878c 789a cebf
00000020: 041b cbbe e1e8 0b3f b334 49bf aff2 e3be
00000030: 91af e7bf ffdc 9abf 0b43 61bf 9cdc afbf
00000040: 0bcb 4cbf 202c 6dbe ef05 fabe 3518 7bbf
00000050: c813 82bf cae4 c63e 01f6 7f3e adc7 a7bf
00000060: b707 213f d755 62bf 8867 b2bf baff d33f
00000070: 500f babe baa9 5abf 446f 62bd a94d 0d3f
00000080: d36e 723f 7a40 b0bf 5be2 09c0 ff7d 4dbf
00000090: 51f6 3d3f edea 0540 0a51 3cbf db06 6fbf
000000a0: 0f14 f8bf 85e5 ad88 7220 a13d efd3 dc3f
000000b0: bde8 36bf 09b6 48bf 5ae1 013f 58b1 0040
000000c0: aac5 f1be 9ab9 3cbf 9a40 fcbf f9cc 63bf
000000d0: ea3b 43bf 2e4e c03e 6c8c ffbd 15d0 783d
000000e0: f8fa 7294 a9ac cf85 e0e1 52bf 07a0 28bf
000000f0: 4ef0 bcbd 5113 5d3f 1421 f9be bdae 1cbf
00000100: 1558 0abf 9e57 663e 7cda 32bf 1852 63bf
00000110: d66f cf3f 4298 ca3d 825c b93d f2a7 4d3f
00000120: fd08 8abf d0f5 babf 20d3 0bc0 116e 923f
00000130: 28a9 a4bf a940 ee3f 866c 213f 477b 803d
00000140: a824 78bf ada2 a182

layers.3.weight f4 [92, 82]
-0.07602124 9.323028e-20 -0.15127905 -1.7889784e-28 0.090331525 0.077141166 -7.885416e-29 0.012839702
0.04319071 0.07967391 0.05855198 0.031435274 -0.050840378 -0.0775608 -0.0005328623 -0.0596475
-0.0026799168 -0.040426124 -0.027084151 -0.023417221 -0.056707058 -0.09272058 -0.072296485 0.050699256
0.08772213 -0.04870718 0.0205505 -0.4668429 0.0021437977 0.039861917 0.015148284 -0.05681681
-0.15404445 0.078082815 -0.15520833 0.06219225 0.0099277245 -0.10892101 0.10234896 -0.042183954
-0.054824673 -2.5158148e-32 0.13025548 0.004212737 0.041396543 -0.12765667 -0.03239586 -0.1386712
0.113871455 -0.06447065 -0.0079118395 0.24486746 0.31600568 0.3497682 -0.01803007 0.07623289
-1.2707409e-25 4.368397e-39 -0.005468532 -0.044805516 0.008461059 -0.06062195 0.2069712 0.06573386
-0.015911993 -0.0011966152 0.28378373 0.023591133 -0.18624823 -0.10416895 0.027295763 0.15737912
0.012109135 0.040113796 0.05873952 0.06463856 -0.5791462 0.07057771 -0.9636173 0.010833817
-0.19740388 3.650932e-39 0.07356693 6.713909e-20 -0.041322663 -1.8581411e-28 -0.05977023 0.16265525
-2.230494e-28 0.15606603 -0.006777886 0.059600458 0.0064973277 0.048036873 0.108588524 0.2849722
0.04660247 -0.02917864 -0.006430947 -0.024746398 -0.030616246 0.01985162 0.17362125 -0.03347002
0.19466773 -0.039296288 0.02224764 -0.027412025 0.07764367 0.1012941 -0.057711814 0.012301698
-0.004346407 -0.3439976 -0.15066066 0.38109162 0.1160828 0.015987739 0.13388382 -0.2101723
0.1756348 0.2196263 0.18126372 -1.1160411e-32 0.047624417 -0.13403463 0.027842255 0.103391275
0.13871884 -0.15647376 -0.11496192 0.17125244 -0.09929778 0.27973914 -0.045224003 -0.006119543
0.0069214697 -0.04531766 -4.8782216e-24 1.0498909e-38 -0.00095081027 -0.091824956 -0.11835876 0.09502629
-0.04505703 -0.0015130752 -0.05224283 -0.17931703 0.04133748 0.00062408106 0.116296284 -0.0010403839
-0.109986514 -0.020542448 0.0028140831 -0.026691202 0.10672008 -0.06397243 -0.03648445 -0.14207199
0.08045695 0.05636048 -0.119282104 2.9859294e-38 -0.07238058 -5.4023554e-19 -0.017757356 -7.447567e-27
-0.028169658 -0.10083502 -1.0576479e-28 0.0029291923 0.019010762 -0.0036370738 -0.056177728 0.27969238
0.035678685 -0.008640247 -0.01637061 -0.0049923174 0.100446105 0.04723766 0.1040747 -0.05895669
-0.005988026 0.029953578 0.017274588 -0.12555262 -0.06099766 -0.08938668 0.15302882 -0.037617285
0.38550255 -0.023065414 -0.011000489 0.050039202 -0.0131648015 -0.006121191 0.11144519 0.018732214
-0.0003419911 -0.021594347 0.053606723 -0.0540403 0.13053308 -6.3015196e-32 -0.007379254 -0.03393257
-0.061966103 -0.028573904 0.0964121 -0.01672864 0.06258683 0.017379189 -0.011251468 0.028002018
0.0773839 0.0066131656 -0.07883932 0.02174926 1.696596e-21 2.9397515e-38 -0.019753102 -0.1380773
-0.016642878 -0.02430939 0.099385925 -0.022580374 0.0077647837 -0.047324456 -0.015515376 0.0136384545
0.032586012 0.18981564 0.03076917 0.028197153 -0.028252821 0.020588323 -0.05952644 -0.010432714
0.05523699 -0.24059553 0.00316301 -0.06499571 -0.07152495 -2.1280343e-38 -0.018052792 2.4009184e-19
-0.06779059 4.4844653e-28 -0.029866265 0.30765274 2.038012e-28 -0.009467538 -0.0051164846 -0.039542407
00000000: 06b1 9bbd 3f22 dc1f e5e8 1abe abc7 6291
00000010: bcff b83d 30fc 9d3d 47eb c790 9d5d 523c
00000020: bee8 303d 132c a33d 33d4 6f3d 46c2 003d
00000030: 003e 50bd 32d8 9ebd c9af 0bba f050 74bd
00000040: 8ba1 2fbb dd95 25bd 95df ddbc 79d5 bfbc
00000050: a945 68bd 4ae4 bdbd 2e10 94bd 06aa 4f3d
00000060: a9a7 b33d 2e81 47bd 8659 a83c 0806 efbe
00000070: f57e 0c3b 4046 233d 8230 783c beb8 68bd
00000080: d4bd 1dbe e2e9 9f3d efee 1ebe 4dbd 7e3d
00000090: e5a7 223c fa11 dfbd 559c d13d 15c9 2cbd
000000a0: d68f 60bd eaa0 028b b161 053e 000b 8a3b
000000b0: 6c8f 293d 6eb8 02be 85b1 04bd d3ff 0dbe
000000c0: 7035 e93d 3009 84bd a9a0 01bc 89be 7a3e
000000d0: 7fcb a13e d114 b33e ccb3 93bc fd1f 9c3d
000000e0: 634f 1d96 5091 2f00 5f31 b3bb fd85 37bd
000000f0: 41a0 0a3c b94e 78bd 42f0 533e 799f 863d
00000100: de59 82bc bed7 9cba 1a4c 913e 3142 c13c
00000110: dbb7 3ebe 8856 d5bd 5d9b df3c fe27 213e
00000120: 6565 463c 5d4e 243d da98 703d 3961 843d
00000130: ed42 14bf 0c8b 903d a0af 76bf 5280 313c
00000140: 3e24 4abe 50c1 2700 42aa 963d 1787 9e1f
00000150: f441 29bd 208c 6b91 a1d1 74bd 198f 263e
00000160: d65f 8d91 c6cf 1f3e 0719 debb 9c1f 743d
00000170: 89e7 d43b 50c2 443d a963 de3d e0e7 913e
00000180: 3be2 3e3d 0b08 efbc b2ba d2bb f5b8 cabc
00000190: ecce fabc dd9f a23c c5c9 313e dc17 09bd
000001a0: fa56 473e 25f5 20bd af40 b63c 2f8f e0bc
000001b0: a503 9f3d 4873 cf3d 3963 6cbd 108d 493c
000001c0: 4e6c 8ebb 7420 b0be ca46 1abe 711e c33e
000001d0: d2bc ed3d b8f8 823c d718 093e 6837 57be
000001e0: 9cd9 333e b7e5 603e 329d 393e ecca 678a
000001f0: d211 433d 6040 09be 7115 e43c cebe d33d
00000200: 500c 0e3e a83a 20be 2871 ebbd cd5c 2f3e
00000210: a25c cbbd f839 8f3e ce3c 39bd 7386 c8bb
00000220: 7fcd e23b 039f 39bd 91b7 bc98 b052 7200
00000230: cc3f 79ba b90e bcbd 1466 f2bd 259d c23d
00000240: b88d 38bd 6152 c6ba 94fc 55bd e29e 37be
00000250: 7d51 293d 5f99 233a bf2c ee3d 7e5d 88ba
00000260: 9c40 e1bd a348 a8bc 7b6c 383b 82a7 dabc
00000270: 0f90 da3d fa03 83bd b870 15bd 527b 11be
00000280: 9dc6 a43d 3fda 663d 2d4a f4bd c891 2201
00000290: 453c 94bd 0b73 1fa1 e077 91bc a783 1394
000002a0: 0ec4 e6bc 9782 cebd a312 0691 b1f7 3f3b
000002b0: 75bc 9b3c f95b 6ebb 9e1a 66bd d733 8f3e
000002c0: d023 123d d38f 0dbc a81b 86bc 9896 a3bb
000002d0: b0b6 cd3d 477c 413d 1e25 d53d 927c 71bd
000002e0: 3437 c4bb 3561 f53c 7083 8d3c de90 00be
000002f0: afd8 79bd 5d10 b7bd 96b3 1c3e 9514 1abd
00000300: 9760 c53e aef3 bcbc 653b 34bc e8f5 4c3d
00000310: 2eb1 57bc 4694 c8bb 603d e43d 4d74 993c
00000320: 454d b3b9 a1e6 b0bc b992 5b3d 5d59 5dbd
00000330: 77aa 053e c898 a38b abcd f1bb e1fc 0abd
00000340: 2bd0 7dbd d213 eabc b573 c53d 800a 89bc
00000350: 862d 803d cd5e 8e3c 1458 38bc 7d64 e53c
00000360: 737b 9e3d 41b3 d83b 8276 a1bd 812b b23c
00000370: f030 001d 280e 2001 42d1 a1bc 2364 0dbe
00000380: a556 88bc 7c24 c7bc d98a cb3d 7afa b8bc
00000390: ba6f fe3b 4ad7 41bd 3434 7ebc d373 5f3c
000003a0: e978 053d 085f 423e a00f fc3c b7fd e63c
000003b0: 7672 e7bc d8a8 a83c ffd1 73bd f9ed 2abc
000003c0: 2f40 623d ad5e 76be 814a 4f3b 791c 85bd
000003d0: ac7b 92bd f0b8 e780 73e3 93bc a7b9 8d20
000003e0: cbd5 8abd 4e1e 0e12 19aa f4bc a984 9d3e
000003f0: a32c 8111 bc1d 1bbc 2fa8 a7bb 38f7 21bd

layers.3.bias f4 [92]
-0.17621225 -1.1325635 -0.80577517 0.007393711 -0.021978468 -1.318551 -0.10047745 -0.85841125
-0.8157685 0.16973995 -1.4851705 -1.0838704 -1.2803091 -1.9280494 -7.960649e-25 0.036310557
-0.5960502 -0.10000578 -0.8505847 1.1884986 -0.81308454 -1.9175158 -0.3774375 -1.4587497
1.6995239e-38 -1.6005734 0.17340091 -1.3007185 -0.7802753 -0.77587587 0.42222124 -0.4516585
-1.3639635 0.8589558 0.42850053 -0.7364571 -1.2883344 -0.8876289 1.605354 0.19335559
-1.8094108 -0.8837084 0.17541744 -1.0490311 -1.0702308 -1.1217103e-08 -0.79224926 -0.17719921
0.20234053 -6.44216e-40 -1.6785394 -2.3984624e-24 1.886488 -0.93745023 -0.6460345 -0.17313044
1.5460068 0.27146268 2.2200887 -0.7936956 -0.7059128 -1.750593 0.050589126 0.14938219
-0.5536983 -0.853523 -0.011408727 0.29909685 0.53371274 -5.8154993e-36 -1.1831263 0.77663237
-0.75750095 2.0112636 -0.48674017 -0.8106094 -1.3101212 -1.270991 -1.68571 0.2949801
0.05161386 -2.5372672e-38 -0.04013072 -1.9388274 -0.8069338 -4.768473e-39 0.60990006 0.17962173
-0.7294529 -0.4783502 -0.9374399 -3.2830284e-27
00000000: fc70 34be d7f7 90bf 4847 4ebf f146 f23b
00000010: 300c b4bc 47c6 a8bf 1fc7 cdbd d7c0 5bbf
00000020: 34d6 50bf 4fd0 2d3e 111a bebf 44bc 8abf
00000030: 2be1 a3bf 53ca f6bf c25e 7697 61ba 143d
00000040: bf96 18bf d5cf ccbd ebbf 59bf b920 983f
00000050: 4f26 50bf 2871 f5bf 7d3f c1be 4fb8 babf
00000060: d00f b900 97df ccbf 0290 313e f27d a6bf
00000070: 1fc0 47bf cd9f 46bf 622d d83e c83f e7be
00000080: 5b96 aebf 87e4 5b3f 6c64 db3e 7488 3cbf
00000090: 24e8 a4bf a63b 63bf 3d7c cd3f 02ff 453e
000000a0: c69a e7bf b73a 62bf a1a0 333e a746 86bf
000000b0: 53fd 88bf 57b5 40b2 d9d0 4abf b673 35be
000000c0: 5b32 4f3e d003 0780 61da d6bf 7192 3998
000000d0: 7078 f13f bdfc 6fbf 8462 25bf 1b49 31be
000000e0: 8de3 c53f 28fd 8a3e ef15 0e40 a32f 4bbf
000000f0: b4b6 34bf 6e13 e0bf 8b36 4f3d a5f7 183e
00000100: 2cbf 0dbf 7c80 5abf abeb 3abc 3923 993e
00000110: 66a1 083f 2e5d f784 af70 97bf 61d1 463f
00000120: 95eb 41bf 8bb8 0040 0236 f9be 1984 4fbf
00000130: 0db2 a7bf d5af a2bf 58c5 d7bf a207 973e
00000140: 0e69 533d 5824 0a81 1c60 24bd 7f2b f8bf
00000150: 3793 4ebf 90ec 3380 6922 1c3f c2ee 373e
00000160: 6dbd 3abf 51ea f4be 10fc 6fbf dd0d 8293

layers.4.weight f4 [102, 92]
-8.296698e-27 -7.651335e-29 -2.0295108e-26 -1.1676993e-27 -3.1411442e-27 -1.8021628e-25 -1.2488886e-25 -9.438142e-27
-5.0891998e-27 -3.9401263e-25 -1.6115186e-27 -2.6063652e-27 -2.136384e-25 -3.6677998e-26 4.799817e-39 -3.796718e-27
-2.4497925e-27 -1.2590675e-29 -5.821748e-27 -1.413566e-24 -8.625835e-28 -5.759125e-26 -4.0969676e-27 -5.1254885e-26
3.0909034e-38 -1.1881867e-25 -1.7212904e-25 -1.1477311e-25 -8.136423e-28 -4.7873685e-26 -3.6891675e-26 -3.8836354e-27
-1.2799598e-26 -2.6211203e-25 -2.3211995e-27 -2.0747125e-27 -4.2871986e-26 -5.3117764e-28 -2.8106096e-25 -3.0352463e-27
-1.6436223e-31 -4.919671e-27 -5.6509045e-25 -5.129004e-26 -4.8185774e-29 -1.6439294e-38 -2.3507265e-27 -1.0204349e-27
-1.2113741e-30 -2.9371687e-38 -1.2764062e-25 1.3413834e-38 -1.1257501e-25 -4.065461e-31 -6.146815e-25 -3.6715833e-31
-1.8412885e-24 -1.8159731e-25 -1.5909076e-24 -3.949937e-29 -2.560763e-26 -3.6168246e-26 -7.693412e-27 -1.8418997e-29
-1.2722422e-27 -1.1412838e-28 -9.4839603e-29 -6.3155895e-29 -1.048881e-25 2.4973448e-38 -6.4134303e-25 -1.2926158e-27
-3.888963e-29 -1.6330175e-24 -2.988536e-28 -4.5873995e-28 -4.3937096e-26 -1.0838497e-24 -1.4210087e-25 -9.513455e-25
-1.9741614e-28 -2.6061125e-38 -3.1584724e-26 -5.4877097e-26 -1.069861e-25 1.9737345e-38 -4.723382e-25 -2.7200804e-25
-4.822374e-25 -1.9107706e-30 -5.1500853e-29 -1.3007929e-38 0.060272392 0.06916794 -0.011192864 -0.06585221
-0.056626953 0.015862133 0.21278548 0.036038846 0.02338967 0.18354635 9.667109e-05 0.018754166
0.04048316 0.08187984 -1.3109022e-15 -0.066502765 -0.024039298 -0.041446544 0.084053226 0.09739326
0.033257693 0.14973255 0.10841315 0.11331325 -3.6206635e-22 -0.009072413 -0.33938026 0.035881527
0.04418627 -0.06063318 0.06425218 -0.072982855 0.05672934 0.119941466 0.13064888 0.055682328
0.042222288 -0.03744571 0.35397258 0.049966246 -0.04955995 -0.0033986764 0.29270998 -0.009635397
0.031733047 -0.0031284452 0.036081914 0.041887462 -0.028357485 6.000035e-35 0.046508495 7.17924e-20
0.02236632 -0.073254675 -0.005610104 -0.018694768 -0.015996477 0.3331285 -0.06400769 -0.076774344
0.083036244 -0.3239648 0.028225731 -0.08729196 -0.1415667 0.04149276 0.123413555 -0.034400817
0.022265004 3.1147474e-33 0.01620424 0.05942449 0.04337479 -0.2917063 0.03942 -0.002478003
-0.04532378 0.04050405 -0.05206181 -0.2806915 -0.04797009 -2.424446e-38 0.07446925 -0.012175999
-0.036263738 -3.6710676e-36 0.09422577 -0.20895974 0.086435 -0.021852953 -0.042991683 -2.8876597e-24
-9.456061e-26 2.0066276e-27 -2.0763776e-26 -3.314615e-26 -6.966072e-26 -1.1141799e-25 -1.046034e-25 -9.259537e-26
-2.2167867e-26 -2.5252456e-25 -1.5546558e-26 -2.9410436e-26 -8.3825284e-26 -6.4261694e-26 -9.981931e-39 -8.196984e-26
-9.2801794e-26 -1.3928672e-26 -5.196964e-26 -1.5997239e-25 -4.566077e-26 -1.3165592e-25 -8.897613e-27 -7.862353e-26
-2.0178406e-38 -1.0389537e-25 -1.1077944e-25 -1.2913691e-25 -3.734297e-26 -3.286839e-26 -5.486995e-26 -6.703342e-26
-3.480463e-26 -7.5894e-26 -5.7886046e-26 -3.6812826e-26 -5.0626896e-26 -1.8044317e-26 -1.4335433e-25 -3.119403e-26
-6.769404e-27 -2.750208e-26 -2.1231274e-25 -9.3073094e-26 2.769829e-26 -2.8409163e-38 -2.4273742e-26 -3.781852e-26
-1.8447742e-26 1.4189055e-38 -1.135024e-25 -2.3138935e-38 -7.757362e-26 -6.314868e-27 -1.9269086e-25 -7.416881e-27
-2.8561372e-25 -1.3150453e-25 -1.6509539e-25 7.286633e-27 -6.9538335e-26 -6.5204746e-26 -6.002629e-26 -2.6144872e-26
-4.477655e-26 -2.6073714e-26 -2.780712e-26 -1.3758161e-26 -1.1407968e-25 -3.759852e-39 -2.2273377e-25 -4.7415252e-26
00000000: 4255 2494 01fc c190 36fe c894 8307 b992
00000010: f9dd 7893 d218 5f96 dc9a 1a96 11f1 3a94
00000020: 9e9a c993 cbe1 f396 f65a ff92 5e7f 4e93
00000030: 5b3c 8496 e39e 3595 f043 3400 4b67 9693
00000040: b217 4293 865e 7f8f 8a9f e693 1ebd da97
00000050: 8bae 8892 cb96 8e95 304c a293 49cd 7d95
00000060: e848 2801 2417 1396 df15 5596 0d15 0e96
00000070: 41ed 8092 1b0f 6d95 c1ad 3695 bed8 9993
00000080: ac85 7d94 4f3d a296 85e7 3793 2b60 2493
00000090: b34a 5495 4056 2892 e3f7 ad96 1c7a 7093
000000a0: b85a 558c 64e3 c293 14e3 2e97 daf9 7d95
000000b0: b654 7490 1002 b380 663e 3a93 c2b1 a192
000000c0: 838e c48d 28ea 1f81 ed02 1e96 5010 9200
000000d0: 725c 0b96 87ee 038d 163c 3e97 a44c ee8c
000000e0: 7a76 0e98 7cce 6096 582e f697 1d49 4890
000000f0: 0e9b fd94 b318 3395 3c62 1894 73ca ba8f
00000100: 4698 c992 c7ac 1091 6c72 f090 851e a090
00000110: 5ed8 0196 e8f7 0701 6e7c 4697 bad2 cc92
00000120: a031 4590 7db2 fc97 c56b bd91 6861 1192
00000130: e390 5995 b6b7 a797 90e9 2f96 ae36 9397
00000140: 3341 7a91 e8e3 0d81 6566 1c95 7ede 8795
00000150: 4071 0496 b0eb d600 7d2e 1297 655d a896
00000160: c83e 1597 2705 1b8e f791 8290 d0a4 8d80
00000170: 2fe0 763d eca7 8d3d 4662 37bc 86dd 86bd
00000180: aaf1 67bd 4ef1 813c 70e4 593e 789d 133d
00000190: b19b bf3c 93f3 3b3e e5bb ca38 56a2 993c
000001a0: acd1 253d 9eb0 a73d c1eb bca6 9a32 88bd
000001b0: 10ee c4bc dac3 29bd 1924 ac3d 1e76 c73d
000001c0: 3839 083d 7d53 193e b707 de3d c710 e83d
000001d0: 0edb da9b 75a4 14bc 40c3 adbe 82f8 123d
000001e0: aafc 343d 7f5a 78bd a696 833d 0978 95bd
000001f0: 065d 683d dfa3 f53d d2c8 053e 2713 643d
00000200: 47f1 2c3d ac60 19bd e53b b53e 68a9 4c3d
00000210: 60ff 4abd 54bc 5ebb 15de 953e c9dd 1dbc
00000220: 83fa 013d 9a06 4dbb a1ca 133d 3092 2b3d
00000230: f54d e8bc 1f82 9f06 b17f 3e3d d883 a91f
00000240: 9339 b73c 8c06 96bd f7d4 b7bb c525 99bc
00000250: 0b0b 83bc d28f aa3e 7716 83bd de3b 9dbd
00000260: e80e aa3d b7de a5be a639 e73c 21c6 b2bd
00000270: dcf6 10be 50f4 293d 3fc0 fc3d dfe7 0cbd
00000280: 1965 b63c ad61 8109 c1be 843c 1867 733d
00000290: c4a9 313d 875a 95be de76 213d fe65 22bb
000002a0: 6ea5 39bd 93e7 253d c43e 55bd ccb6 8fbe
000002b0: 497c 44bd d8ff 0381 5683 983d d77d 47bc
000002c0: 4989 14bd 6326 9c84 71f9 c03d 8bf9 55be
000002d0: d504 b13d f704 b3bc 0c18 30bd fe6b 5f98
000002e0: e81e ea95 3efb 1e13 6da2 cd94 bd21 2495
000002f0: ba78 ac95 c5ed 0996 247e 0196 4a41 e595
00000300: 388a db94 1d4e 9c96 35f7 9994 28a2 1195
00000310: 968a cf95 b01a 9f95 90b1 6c80 8ff2 ca95
00000320: 20c4 e595 61f1 8994 acab 8095 4609 4696
00000330: e719 6295 6dfb 2296 423c 3094 95a9 c295
00000340: 30b9 db80 c29d 0096 6823 0996 1fdd 1f96
00000350: d7e9 3895 a2c1 2295 f6d9 8795 7af7 a595
00000360: 1c58 2c95 8ae7 bb95 a451 8f95 cd49 3695
00000370: 37b1 7a95 c7b3 b294 cd76 3196 2177 1a95
00000380: f514 0694 072f 0895 4c6a 8396 1570 e695
00000390: c127 0915 98ac 1a81 3f65 f094 ab44 3b95
000003a0: 95b2 b694 5081 9a00 5982 0c96 f0f5 fb80
000003b0: 1f10 c095 5f28 fa93 2c8a 6e96 0ee8 1294
000003c0: 4dc9 b096 73cb 2296 d160 4c96 9e53 1014
000003d0: 282b ac95 6b70 a195 2e9e 9495 9076 0195
000003e0: 05b9 5d95 5c1c 0195 b6b1 0995 1541 8894
000003f0: 4b39 0d96 f0f0 2880 93dd 8996 f9c9 6a95

layers.4.bias f4 [102]
-6.562821e-29 -0.8171627 -1.7606756e-26 0.44224992 -0.038070343 -0.5215843 2.138964e-39 -0.0038512081
-1.0408027 -1.5850912 -0.58961886 -0.9851367 -0.49097925 -0.9257307 -0.0497658 -0.10353223
-0.4291363 -3.841349e-18 -1.2488316 -2.194029e-36 -7.282046e-29 -0.71861935 -1.6508456 -0.09856452
-4.091323e-36 -1.2992696 -0.5319 -0.03975808 -1.1159382e-34 -1.1112734 0.032963444 -1.5338156
-0.58801067 9.18377e-40 -2.5278289e-14 2.9361463e-38 -0.91863513 -1.3288455e-37 -1.423243 0.4733942
0.15255381 -0.0035510312 0.48817062 0.27777696 -1.1530541 -2.1283918e-25 0.033671502 -1.4139808
0.16614118 -0.3050556 -0.004358557 0.095670894 -1.8939971 0.18043745 0.30664653 0.47153267
-1.1839764 0.7743375 0.22733358 -0.13510121 -0.091408156 0.1766469 -6.2093294e-21 -1.6832461
-4.963222e-31 -2.5347645e-18 -1.1293613e-16 -2.316275 -6.4442024e-35 -1.4664855 -0.42582825 -2.2188833e-38
-2.9241915e-38 -1.7195978 -0.0025636102 -1.1703066 -0.14283408 -0.2928859 1.1700219 -1.01354
-0.46526894 -0.6034228 -0.8436177 1.6464292 -0.31868234 -0.8754529 -5.779068e-34 -2.6651222e-25
-0.9530163 -7.117067e-33 -1.5989664 -0.7948809 0.25465104 -0.017878747 0.044017255 -0.9100734
-1.2857648 -1.8758366 -1.6958563 0.28202072 -0.971573 -1.4163176e-35
00000000: 2563 a690 9331 51bf 6e5e ae94 956e e23e
00000010: a6ef 1bbd 8c86 05bf 904a 1700 8d64 7cbb
00000020: 0639 85bf 45e4 cabf 43f1 16bf eb31 7cbf
00000030: a261 fbbe b0fc 6cbf 39d7 4bbd b508 d4bd
00000040: c1b7 dbbe 84b8 8da2 b7d9 9fbf b8a5 3a84
00000050: 2e9f b890 70f7 37bf e94e d3bf 32dc c9bd
00000060: 9006 ae84 774e a6bf 992a 08bf 5ed9 22bd
00000070: 6955 1487 353e 8ebf ad04 073d 1254 c4bf
00000080: de87 16bf 1000 0a00 c4af e3a8 e8db 1f01
00000090: ac2b 6bbf 82df 3482 d42c b6bf b960 f23e
000000a0: 1137 1c3e 6bb8 68bb 80f1 f93e c838 8e3e
000000b0: 4797 93bf b7bd 8396 21eb 093d 53fd b4bf
000000c0: ea20 2a3e 3f30 9cbe 3ad2 8ebb 1aef c33d
000000d0: 7f6e f2bf 98c4 383e c600 9d3e bb6c f13e
000000e0: 8a8c 97bf fb3a 463f 22ca 683e f957 0abe
000000f0: 3334 bbbd ede2 343e f394 ea9d 9c74 d7bf
00000100: d610 218d 5908 3ba2 dd34 02a5 d93d 14c0
00000110: f850 ab86 ccb5 bbbf 2906 dabe 709d f180
00000120: 4835 1f81 c81b dcbf 3e02 28bb 9bcc 95bf
00000130: 1943 12be 24f5 95be 47c3 953f aebb 81bf
00000140: bb37 eebe eb79 1abf 54f7 57bf 31be d23f
00000150: 552a a3be ae1d 60bf e00a 4088 8cf6 a496
00000160: e0f8 73bf d2d0 138a eeaa ccbf 517d 4bbf
00000170: 9f61 823e 7376 92bc 704b 343d 92fa 68bf
00000180: f193 a4bf 6a1b f0bf d211 d9bf 0565 903e
00000190: 02b9 78bf d59b 9685

layers.5.weight f4 [112, 102]
-1.0100372e-27 0.25204018 -2.2436326e-28 -0.011725114 -0.053612307 0.005734044 7.246283e-39 0.0040656985
-0.008535512 0.028250946 -0.5008945 -0.014812635 0.03872474 0.0017244094 -0.044832908 -0.033815347
-0.0064907447 -2.6646923e-14 -0.011277524 -2.1355318e-34 -5.3789255e-33 -0.0002865892 -0.010525421 -0.110234566
1.1441075e-38 -0.0426897 0.005079031 0.12803969 1.8337253e-37 0.00094913325 0.010233151 0.020210432
0.5095414 -3.2998404e-38 1.6570924e-09 2.2237037e-38 -0.0049966993 -3.1008224e-38 0.040767264 -0.06106214
0.10934557 0.002719906 0.11713055 -0.0037721284 -0.032179322 -4.0121014e-28 0.029810712 -0.029341573
0.41350397 -0.01732908 -0.001925816 -0.038494613 -0.014164792 0.024661714 -0.025617473 -0.09068568
-0.00976928 -0.010505378 0.11931886 -0.051181227 0.09458151 -0.016174644 2.865491e-18 0.0059210635
4.7407474e-33 2.764806e-19 -3.2626976e-16 -0.015707767 -7.399372e-39 0.0077297566 0.016116882 1.3188194e-37
-2.680309e-35 -0.054559335 -0.0008759878 -0.5512764 0.048368372 -0.080136 -0.22878431 0.025102599
0.0335618 -0.13617085 -0.30565864 -0.17765547 0.024832392 -0.021854846 1.5279714e-29 -4.664758e-26
0.09057352 -8.7288345e-28 0.013552968 -0.02955096 0.08216448 0.0046378146 0.25721344 -0.0036259799
0.0317815 0.2528829 0.008952709 -0.022918519 -0.012427866 -1.51214e-38 -9.641898e-39 -2.8496136e-26
1.5518697e-38 -1.7159852e-26 -4.282785e-26 -5.2339122e-27 -1.2165984e-38 -1.8398556e-38 -2.342933e-26 -3.3349823e-27
-3.692314e-26 1.4937212e-28 -1.1126007e-28 -3.4571852e-27 -2.6801106e-26 -6.4050552e-27 -2.6659708e-27 2.93394e-38
-1.601225e-26 4.944e-40 5.605665e-39 -4.571962e-27 -8.17767e-27 -6.0175925e-26 -9.727096e-39 -5.0681024e-27
-1.2370792e-26 -4.0444677e-26 1.8162734e-38 -3.413018e-27 -5.7767335e-26 -5.7918318e-27 -2.8020302e-26 2.0924077e-38
1.8155156e-38 2.7044276e-38 -3.396507e-27 1.5578515e-38 -6.478163e-27 -4.035551e-26 -2.834053e-26 1.3871128e-38
-5.1403976e-26 -1.5872586e-26 -1.19838294e-26 2.00861e-39 -7.820766e-27 -9.975278e-28 -2.1197671e-26 -1.04043936e-26
2.211045e-38 -2.3581903e-26 -5.2794335e-27 -1.21549075e-26 -2.2401872e-26 -3.4061526e-26 -7.092325e-27 -6.064072e-26
-4.8487678e-26 -9.204801e-27 -5.606167e-26 -1.7365925e-26 -2.2759441e-38 -5.8490088e-27 -7.08205e-40 -8.91385e-39
2.662579e-39 -1.3828059e-27 -2.544442e-38 -1.1553418e-26 -1.8579257e-26 5.089314e-39 -8.66202e-39 -5.922288e-27
3.892897e-39 -5.8284495e-28 -3.1070008e-26 -5.96607e-26 -5.7215755e-26 -1.6487737e-26 -1.5490754e-26 -4.8008123e-28
-3.3198663e-26 -7.50698e-26 -2.6207562e-26 -3.4556175e-27 -4.511307e-39 2.9396036e-38 -4.1880857e-26 -2.5448455e-38
-5.224044e-29 -1.0692377e-26 -3.8915735e-26 -4.7434847e-26 -4.5413943e-26 -1.5232373e-26 -6.0614396e-27 -3.8321052e-27
-6.5669e-27 -5.5010704e-26 -2.5658926e-27 1.7222496e-38 7.425908e-28 0.10834257 2.0946133e-27 0.019730411
-0.007591139 -0.006993221 -1.5476411e-38 0.00058260985 0.0030254293 -0.0025490597 -0.17972599 -0.024130762
-0.0082661295 0.19009228 0.005319717 -0.015412884 0.01787059 1.0579869e-12 0.0024978514 2.5050247e-33
-2.704719e-32 0.017316686 0.02187163 0.16351545 -2.3483005e-38 0.0032603857 0.013515556 -0.0037298265
1.3580405e-37 -0.017858744 -0.008129673 -0.0009572577 0.11203567 6.7596486e-38 6.889832e-06 1.0582808e-38
0.0102998875 -2.9982429e-38 0.0043165996 0.47127423 0.008638359 0.0032085076 0.006835558 0.024275161
-0.012906891 -1.391787e-28 0.022325091 0.029794239 -0.2613383 -0.017243274 0.0012472366 -0.02304953
00000000: fa0b a092 690b 813e 0535 8e91 b11a 40bc
00000010: 9498 5bbd a6e4 bb3b b0e7 4e00 8d39 853b
00000020: 88d8 0bbc 876e e73c 9f3a 00bf b2b0 72bc
00000030: d59d 1e3d 9405 e23a b6a2 37bd f681 0abd
00000040: 50b0 d4bb 9f03 f0a8 5dc5 38bc 31ee 8d87
00000050: 8c6e df89 5a41 96b9 d172 2cbc a9c2 e1bd
00000060: 1095 7c00 65db 2ebd 006e a63b d61c 033e
00000070: 0098 7902 41cf 783a f2a8 273c 5990 a53c
00000080: 4e71 023f 10a9 3381 c1bf e330 d023 f200
00000090: 5abb a3bb 28d3 2881 93fb 263d 4b1c 7abd
000000a0: 92f0 df3d 7340 323b 24e2 ef3d d035 77bb
000000b0: 77ce 03bd 114c fe91 9835 f43c bd5d f0bc
000000c0: cbb6 d33e b7f5 8dbc a96b fcba 87ac 1dbd
000000d0: 7213 68bc 5d07 ca3c bcdb d1bc 6ab9 b9bd
000000e0: 550f 20bc c01e 2cbc 725d f43d 68a3 51bd
000000f0: f3b3 c13d b080 84bc 986f 5322 7b05 c23b
00000100: 46ec c409 9134 a320 eb14 bca5 93ad 80bc
00000110: 7092 5080 e649 fd3b 8d07 843c 2682 3302
00000120: 7a82 0e86 9c79 5fbd 8ca2 65ba 7320 0dbf
00000130: ea1d 463d 581e a4bd 6f46 6abe f7a3 cd3c
00000140: 1978 093d 5f70 0bbe 4a7f 9cbe 51eb 35be
00000150: 4d6d cb3c ef08 b3bc 68f4 9a0f d5fc 6695
00000160: 9c7e b93d 5c50 8a92 450d 5e3c db14 f2bc
00000170: da45 a83d cff8 973b 7bb1 833e d9a1 6dbb
00000180: 512d 023d de79 813e 62ae 123c 9ebf bbbc
00000190: 409e 4bbc 50a8 a480 b0fd 6880 251b 0d95
000001a0: d0fb a800 65f1 a994 c012 5495 2d56 cf93
000001b0: d079 8480 b057 c880 6908 e894 bd1c 8493
000001c0: a4d5 3695 065a 3d11 f509 0d91 06f4 8893
000001d0: 70b6 0495 faba fd93 5038 5393 28bd 1f01
000001e0: e093 9e94 3062 0500 500a 3d00 341d b593
000001f0: b7f9 2194 06fd 9495 30eb 6980 aac4 c893
00000200: 5e07 7594 b845 4895 50c6 c500 1d34 8793
00000210: 6606 8f95 2770 e593 f4bf 0a95 d0d7 e300
00000220: 30b1 c500 383e 1301 ac8c 8693 90a2 a900
00000230: 3050 0094 b0d4 4795 e455 0c95 100b 9700
00000240: 488a 7e95 c931 9d94 3c5d 6d94 30df 1500
00000250: ffe7 1a94 8910 9e92 7bee d194 8b14 4e94
00000260: f0c2 f000 3a8b e994 d123 d193 b4c0 7094
00000270: 7edb dd94 1daa 2895 5c7a 0c94 9f23 9695
00000280: 6f19 7095 e351 3694 4ecd 8a95 dafb ab94
00000290: 10d4 f780 ffb3 e793 30b6 0780 3010 6180
000002a0: 30fe 1c00 451d db92 5888 0a81 cad6 6494
000002b0: 0300 b894 f06a 3700 3052 5e80 239b ea93
000002c0: d063 2a00 00b6 3892 ead9 1995 76b6 9395
000002d0: cba8 8d95 6149 a394 ba69 9994 d124 1892
000002e0: 4e64 2495 23dd b995 08c6 0195 20e4 8893
000002f0: b01f 3180 180c 2001 4b62 4f95 f88d 0a81
00000300: fc71 8490 cbc8 5394 8eb3 4095 d0e2 6a95
00000310: 03e1 6095 a7da 9694 4d1e f093 2ace 9793
00000320: 2412 0294 2d33 8895 7c4a 4b93 5089 bb00
00000330: 2056 6b12 b6e2 dd3d cef3 2513 aca1 a13c
00000340: 17bf f8bb 6427 e5bb f085 a880 49ba 183a
00000350: 4846 463b 200e 27bb 170a 38be e0ad c5bc
00000360: a96e 07bc 8da7 423e 0551 ae3b 5286 7cbc
00000370: 5865 923c ffe5 942b feb2 233b fc1b 5009
00000380: e26f 0c8b b9db 8d3c 222c b33c 9870 273e
00000390: 10b5 ff80 32ac 553b 5a70 5d3c 1b70 74bb
000003a0: ced8 3802 804c 92bc 5232 05bc 7af0 7aba
000003b0: f572 e53d e003 b801 352f e736 903c 7300
000003c0: dcc0 283c 683d 2381 4372 8d3b db4a f13e
000003d0: e787 0d3c d345 523b d1fc df3b b4dc c63c
000003e0: 6d77 53bc 126e 3091 1ce3 b63c 0c13 f43c
000003f0: 22ce 85be c441 8dbc 517a a33a 5ed2 bcbc
